TARL/projects/snakegame/model/model.pth (torch, 17103 bytes, 4 tensors)

linear1.weight f4 [256, 11]
00000000: 8d7b a4bd 022e 833e aea4 213d 6334 8ebe
00000010: 0520 4a3e a46e 803e 4f9e b8be 1da3 b5be
00000020: 9ba3 8fbe 9ce8 573e f1f6 4fbe 3c24 893e
00000030: ef7e 393e 3ce5 613e 8c23 8abe 0906 67be
00000040: bc62 a1bd d75a 103e 9dca 393e f301 a53e
00000050: 634b 37be 6b65 c33e a312 58be 6c5a 8b3e
00000060: be8a 263e 0f64 c33d f5ae 91bd 19c5 a9bb
00000070: 367d 863e f752 a83d da74 bdbd 72b3 b03e
00000080: c339 c0bd 612e 4f3e 1dda 8ebc 1a67 45bc
00000090: 5794 9bbe 8db1 323d 096d 943c 45ab 093e
000000a0: 4ce2 853e 4a67 54be 7b5c 32be 45f2 b83e
000000b0: 377d b83e 416c 5d3e 1e6b 813e 0a40 3a3e
000000c0: 11e5 72be 20fb b23e 5b63 04be 32e4 1dbe
000000d0: d76a 0b3d 5350 7dbe f23a 123e 91a4 803e
000000e0: 2252 753e 4d6f 4bbe 7e31 163d 6983 74be
000000f0: f4ef 72bd 94c0 c33e fe2c 1f3d 93bc 2f3e
00000100: bbee 65be 40c7 85be 79e0 8dbe f8d0 19be
00000110: f58d aa3d 91a1 023e a8da 8ebe e1a7 e23d
00000120: dd1c 4dbe bc88 973e c16c 1fbe e73d 93be
00000130: 8821 8bbc cee9 4fbe 32e9 3fbe 65fa 703e
00000140: d31d ca3c f2c9 58bd e1c0 87be d208 873e
00000150: 6835 f53d 49ce 583e 6a30 cb3d 9e49 51be
00000160: 2b90 253e a214 5fbe dddc 4b3e 66f7 c8bc
00000170: 8dc3 033e 6b41 cebe 3b0d a03e 6dcb 993d
00000180: 20d3 a93d 67f2 f13e ef6b 86be 0ed3 f0bd
00000190: 78f0 2e3e 207a 8cbe 92d7 7fbe 9558 90be
000001a0: ae70 833e 6525 2c3e 87a7 8f3e 260b 2c3e
000001b0: 8572 68be 59dc 353e 582a 98bd 8e4d a1be
000001c0: 0109 8a3e 0427 47be e768 043d 49e4 47be
000001d0: 95fe 403e 163d 353d 248e 72be b88c 293e
000001e0: 1fea 99be b713 8c3c 8b9e 9abd b0d6 1dbe
000001f0: a263 64bd f336 dfbd 0317 eebd b464 213e
00000200: a9bc a43e aae4 323e 8e79 be3e dc3e 493d
00000210: b4e9 61be 6458 493e aebe a6be 2c75 1fbe
00000220: 22fc 66be ca0b 69be 3b6d ac3e 8d4c 813e
00000230: 24e9 b3bd 41a0 a73e 8b86 8bbe ddd4 af3d
00000240: 066d ebbd b561 7fbe 90ec 8cbe 1531 643e
00000250: 7a79 cc3d d96a 44be 1fa9 a53e 4256 32be
00000260: fb5d 41bd 4799 08be 5459 9a3e 2d6a 12ba
00000270: bcf1 aa3d f963 9c3d a755 ee3b 1618 4fbe
00000280: 0c08 7fbe be01 d4bd 2891 0ebd d924 303e
00000290: 0895 613e 1ca5 ab3e 3c9c a1bb ed31 883e
000002a0: 2127 c2bd 2097 82be c477 793e bb72 093e
000002b0: a309 853d 3e9f 053e 68b7 8cbe fd20 2bbe
000002c0: e605 c03d 246c 1b3e e27e 593e bd13 6e3e
000002d0: b08f 35bd f168 7f3d b8e7 f9bc 1ca2 1c3d
000002e0: a74e 363e 0a0b 9ebd 1d00 c23d 3cd1 273e
000002f0: cfa4 0d3e 106e f83d 345b f03d f729 83be
00000300: a414 973e 1778 a3be 56db 453d 70a6 d83e
00000310: a3e1 02be a51d f83e fd2f abbe f130 d63a
00000320: 84d5 21bc be8b 143e bb75 273e a5c0 9cbe
00000330: 52a4 b03e 1710 503d 85a5 a43d d6e1 ebbe
00000340: 8aad 1fbe 9bdd 7fbe e5a3 29be 7e27 c23e
00000350: 27ba 163d 5021 c6bd 627f 6f3d 3005 893d
00000360: 589f 11bd 4abc a93e 71f7 933e 5b45 f03e
00000370: e196 45be ceca 573e 3033 45be a94d 923e
00000380: 8260 2d3e 67eb 9cbe cd15 c8be 0537 783e
00000390: 92fc 0b3e d149 8fbe 5596 54be 3c13 94be
000003a0: 90bc 49bd 80d7 febc c005 ff3b feb1 4abe
000003b0: 30b2 8e3d a78d 193e ec9a 67bd fa56 b1bd
000003c0: 14e9 6dbe fbc5 16bc f4ae e83d c765 163e
000003d0: dc57 78be 9467 d83c 525d d63e 06aa 5cbe
000003e0: d8e0 ffbd ec67 a4be a7af 573e 4fa9 8abe
000003f0: 5c2e 86be 8f5c 4d3e c882 943d f38d 80bd
-0.08031378 0.2562104 0.03946369 -0.27774343 0.19738777 0.25084412 -0.3605828 -0.35476008
-0.2805451 0.21084827 -0.20309044 0.26785457 0.18114828 0.22060102 -0.26980245 -0.22560896
-0.0788016 0.14097153 0.18143697 0.3222805 -0.17899852 0.38163313 -0.2110086 0.27217424
0.16263863 0.09540569 -0.071134485 -0.0051809666 0.26267403 0.08218949 -0.09250803 0.34511906
-0.09386017 0.20232536 -0.017437989 -0.012048507 -0.30386612 0.043626357 0.018118398 0.1344424
0.26149213 -0.20742527 -0.17418091 0.36122337 0.3603303 0.21623327 0.25277036 0.18188491
-0.23720194 0.34957218 -0.12928526 -0.15419081 0.034037437 -0.24737673 0.14280298 0.25125554
0.23957112 -0.19866677 0.036668293 -0.23878254 -0.05931087 0.38232863 0.038861267 0.17161779
-0.2245435 -0.26128578 -0.27710322 -0.15021122 0.083278574 0.12756945 -0.27901196 0.110671766
-0.20030542 0.29596508 -0.1556883 -0.28758165 -0.016983762 -0.20304033 -0.187413 0.23533018
0.024672424 -0.052926965 -0.26514342 0.26373917 0.11973077 0.21172442 0.099213436 -0.20438239
0.16168277 -0.21785215 0.19908471 -0.024532031 0.12867565 -0.40284285 0.31260094 0.075095035
0.08292222 0.4725525 -0.26254222 -0.117590055 0.17083919 -0.27436924 -0.24984577 -0.28192583
0.25671905 0.1681114 0.280575 0.16801128 -0.22699936 0.17759837 -0.074299514 -0.31504482
0.26959994 -0.19448477 0.032326605 -0.19520678 0.18847115 0.04424771 -0.23687035 0.16557586
-0.30061433 0.017099245 -0.07549771 -0.15413928 -0.05575908 -0.108991526 -0.11625483 0.15761071
0.32175186 0.17470041 0.37202114 0.049132213 -0.22061807 0.19662625 -0.32567352 -0.15572041
-0.22557119 -0.22758403 0.33677086 0.25253716 -0.087847024 0.32739452 -0.27251086 0.08585522
-0.11495404 -0.24939616 -0.27524233 0.22284348 0.09984107 -0.19181384 0.32355592 -0.17415717
-0.047208767 -0.1333972 0.30146277 -0.00055852794 0.083468884 0.07636256 0.007273394 -0.20224032
-0.24905413 -0.10351895 -0.0348064 0.17201556 0.22029507 0.33524406 -0.0049319547 0.2660059
-0.094801195 -0.25505924 0.24362093 0.13422672 0.06495979 0.13049027 -0.27483678 -0.16711803
0.09376125 0.15177971 0.21239808 0.23249717 -0.044326484 0.06235594 -0.030506 0.038240537
0.17803441 -0.07716949 0.09472678 0.1638841 0.138324 0.12130368 0.117361456 -0.25617954
0.29507935 -0.3192756 0.04830488 0.42314482 -0.12781386 0.48460117 -0.3343505 0.001634149
-0.009877566 0.14506432 0.16353504 -0.30615726 0.34500366 0.050796594 0.08039383 -0.46070737
-0.15593544 -0.2498688 -0.16566427 0.37920755 0.036798622 -0.096743226 0.05847109 0.066904426
-0.035552353 0.33151466 0.2889972 0.46927914 -0.19295837 0.21073458 -0.19257808 0.28574875
0.16931346 -0.30648348 -0.39079133 0.24239738 0.13670567 -0.27986005 -0.20760472 -0.28920925
-0.049252093 -0.031108618 0.007782668 -0.19794461 0.0696758 0.14995442 -0.05654423 -0.086591676
-0.23233443 -0.009202476 0.11361495 0.14687262 -0.24252266 0.026416577 0.41868073 -0.21549234
-0.124940574 -0.32110536 0.210631 -0.27082297 -0.26207244 0.2005484 0.07251507 -0.06277075

linear1.bias f4 [256]
00000000: f413 42bd ec68 bdbd a729 25be ea65 1a3e
00000010: 851c 51be 2447 00be 8038 f8bd 3ec6 3a3e
00000020: 22dd 4fbd 0318 f9bc eab4 033d 9d52 4dbe
00000030: 2693 ccbd 0933 4dbd 86c9 d93c d6f9 003d
00000040: 002d 0b3e 849b 2abe c7d2 8a3e 1f7b fb3d
00000050: 1c7f 76bc c0dd 17be 0e75 6a3d 4c25 39be
00000060: 3e97 453e 27bd 0f3e 75d1 2f3e a257 bc3e
00000070: 4626 83bd 2dfe 90be 893e 633e 421f 633e
00000080: ed5f a43d 0b06 4fbc 9fbb ad3d cb6b 9cbd
00000090: 3419 f73c a6bb 92bd 908d 6b3e ecb7 fa3c
000000a0: d742 1bbe b9de 813e a91a 74bd c5b6 fabd
000000b0: b7bc 833d cedb c23d 7d94 bfba 818f 293c
000000c0: e32e 253d b7bd 933e 29d1 45be f922 253e
000000d0: fb0f e8bd c790 28bc 8d1e debd b9db e5bd
000000e0: b487 293e 290e 93bd 81f9 1a3d 32ca 74bd
000000f0: 6edb 4bbe 8ac7 0bbe 4c74 43be 767f 66be
00000100: 77d1 873e e437 bbbb 81ef 87be 8e9d 5cbe
00000110: c0c4 dd3e b2c6 8e3e 2ec5 7d3e ae07 313d
00000120: 7d23 acbd 0fa9 48be 28a0 543e b9b3 1abd
00000130: a27f d63e 284d c1bd 029d 523e ab44 8e3e
00000140: f226 08bc 5bff 603e 0a8e 1b3e 61a4 c3bd
00000150: fffa a13e 4adc 8fbd 7719 17be b92f bcbd
00000160: cd2e 35bd 9cb7 ccbd 7c3c 803e 955b e9bd
00000170: 0507 8bbe dbe2 27be ae64 19be d048 1abe
00000180: 8cef 5c3e 1e03 a9be 1fa3 a23d 73b6 2bbe
00000190: 7b92 6ebd a70b 5fbe 2334 09be 90fe 883c
000001a0: c35a 29be 43db 30be 7790 ab3d 39d7 b6bd
000001b0: dd8d babd 6475 893e 0a41 973e fd0d 2cbe
000001c0: 7036 84be e610 2d3e e7b3 78bd cb43 8ebd
000001d0: 8d17 44bd fda8 863e a20f b0bc ecc3 343e
000001e0: 08b7 3b3d 84e7 323d 5326 1fbd c639 6dbe
000001f0: 45ef 2bbe 41d4 0a3d dad9 783e 8fab 79bd
00000200: 7818 663e 3f74 35be a240 01be 8990 a03d
00000210: 7341 04bd 6a0b 053e b799 453e 7240 c33d
00000220: 498a 013e 02ba da3c 1922 813e cee0 213e
00000230: 2246 923d 8541 d03d 1d19 2abe b434 133e
00000240: c536 fdbd f16a 503c 15bf 093e 603f 8d3e
00000250: d372 d9bd 086a 4b3b 5a4f 7c3e 7608 98bc
00000260: 5dfe a63e 8cce ed3d ce6d ae3d d857 95bd
00000270: ab32 4cbe 7e0a 84be 5961 c3bd d459 5e3e
00000280: 48fd 07be 5934 273e 1e0a c43d 50b1 88be
00000290: 3bf8 9cbd 5bd2 82bc 3a5b 32be 2327 5a3d
000002a0: b7be 06be 40dc 9abd 302e 86be 85e1 3a3e
000002b0: 954b a43e d9f2 693d ea2f 61be 7a55 c0bd
000002c0: 9feb 923e 41bb 593e f143 a8bd b1bc f8bc
000002d0: 5eb4 bb3e d11b 8cbd 2c99 8e3e 7f8e fe3c
000002e0: bd59 283e 758b cc3d 57ed 92bc 4153 83bc
000002f0: 947c 873e 069c 62be 4ca9 80be 3bf2 00be
00000300: fa4e 0b3e 2824 503e 2186 563e 9914 a13b
00000310: 35df 26be a8a2 6ebe b5e5 343e c85d 2c3e
00000320: a06b 3e3e 1ed9 9bbb 999b 923d 7268 7d3e
00000330: 9909 e83e c86a 86be 5775 59bd fd4e 93bd
00000340: 0e9c 55bd 0365 9bbd 4e66 ccbd df01 62bd
00000350: 227b 3c3e 9964 30be 09bb 093e ff3e 9cbe
00000360: e227 be3d e8d5 60bd 38c6 6c3e 7921 853e
00000370: 69e2 0f3e 1672 17bd 8143 0c3e e6ee 0d3e
00000380: d52f e0bd ef7d 093e 3ec1 a53e 5056 17bd
00000390: 9a8e e2bc e1a6 9b3e d0a2 7c3d b9c8 383e
000003a0: c88d 653d b500 5dbe ba86 953e 381f 25bd
000003b0: 0b07 7cbd b1c1 a23c e70d c93d 4f3a 10be
000003c0: b965 803e c769 653e 539f 1e3e 0541 383e
000003d0: 44bd 553d 23b6 00be 26af 453e c5f1 8d3e
000003e0: 50e6 6ebe c75b 213e 73bd 7bbe 9887 c23d
000003f0: f3a4 f73d acb8 3fbe fe80 593e e2e4 4b3e
-0.04738231 -0.09248528 -0.1612917 0.1507794 -0.20421036 -0.12527138 -0.121201515 0.18239686
-0.050747998 -0.030406957 0.032154955 -0.20051046 -0.09989004 -0.0500975 0.026585352 0.031488262
0.13591385 -0.16660887 0.27113935 0.12279343 -0.015044954 -0.14830685 0.05724054 -0.18080634
0.19295976 0.14037 0.17169745 0.3678561 -0.064037845 -0.2831892 0.22191824 0.22179893
0.08026109 -0.012635718 0.084830515 -0.076377474 0.030163385 -0.07164697 0.2300322 0.030605279
-0.15162216 0.25365236 -0.059595738 -0.12241892 0.06432479 0.09514581 -0.0014616397 0.010349155
0.040327918 0.28855678 -0.1931807 0.16126622 -0.11331173 -0.010288424 -0.10845671 -0.112235494
0.16555673 -0.07180435 0.0378356 -0.05976314 -0.19907925 -0.13650337 -0.19087332 -0.2250956
0.26526996 -0.00571345 -0.26549914 -0.21544477 0.4331417 0.27885967 0.2478225 0.043220215
-0.08405206 -0.1959574 0.2076422 -0.037769053 0.4189425 -0.094385445 0.20567706 0.27786765
-0.008310067 0.2197241 0.15190902 -0.09552837 0.31636807 -0.07024439 -0.14755808 -0.0918879
-0.044234086 -0.09995958 0.25046146 -0.11394421 -0.27153793 -0.16395132 -0.14979813 -0.15066838
0.21575755 -0.3301019 0.07941269 -0.16768818 -0.058245163 -0.21781789 -0.13398795 0.016722947
-0.16538529 -0.17271142 0.08377164 -0.08927769 -0.091090895 0.26847374 0.29541808 -0.16802211
-0.25822783 0.16900977 -0.060718443 -0.06946524 -0.047874022 0.26300803 -0.02149183 0.17652863
0.04582885 0.04367782 -0.03885491 -0.2316657 -0.16790493 0.033893827 0.24301854 -0.060954627
0.22470272 -0.17720126 -0.12622312 0.07840068 -0.03228898 0.12992635 0.19296919 0.09533776
0.12650408 0.026700024 0.25221327 0.15808412 0.07142283 0.10168747 -0.16611142 0.14375573
-0.12363962 0.012720809 0.13451798 0.27587414 -0.10617604 0.0031038541 0.24639645 -0.018558722
0.3261594 0.11611661 0.08517037 -0.072921455 -0.19941203 -0.25789255 -0.09540052 0.21713954
-0.13280213 0.16328563 0.09572242 -0.2669778 -0.07664534 -0.015969446 -0.17417613 0.05325998
-0.1315869 -0.075615406 -0.26207113 0.18250091 0.32088915 0.057116363 -0.21990934 -0.09391303
0.2869539 0.21262838 -0.08216084 -0.030363413 0.36661047 -0.06841243 0.27851236 0.031073807
0.16440482 0.09987537 -0.017935438 -0.01603091 0.26462233 -0.2212983 -0.25129163 -0.12592404
0.13604346 0.20326293 0.20949604 0.0049157855 -0.16296084 -0.23304236 0.17665751 0.1683265
0.18595743 -0.004756107 0.07158584 0.24746874 0.45319822 -0.26253343 -0.05309042 -0.071928
-0.05215078 -0.07587626 -0.099804506 -0.055177566 0.18406346 -0.17225875 0.13450254 -0.30516812
0.09284951 -0.054891497 0.2312249 0.260021 0.14051212 -0.036974035 0.13697626 0.13860664
-0.10946623 0.13426946 0.32373995 -0.03694755 -0.027655888 0.30400756 0.061678708 0.1804532
0.056043416 -0.21582301 0.2920435 -0.040312976 -0.061530154 0.01986775 0.09817105 -0.14084743
0.25077608 0.22403632 0.15490465 0.17993553 0.05218245 -0.1256948 0.19305095 0.27723518
-0.23330045 0.15757667 -0.24583988 0.09498519 0.120920084 -0.1872279 0.21240613 0.1991153

linear2.weight f4 [3, 256]
00000000: cbf7 253e 8e02 1fbd 1b4a 3bbd acd6 27bd
00000010: bd3b 3cbe 5509 12be 1ef3 ac3d 6dd8 633d
00000020: ac96 4cbe e4f7 cfbd 1192 4cbe 808c 8dbe
00000030: 67b5 50be 4f9b 1abe a98e aabe ef14 49be
00000040: 7004 813c d70c 96be e070 a63e 865e 10bd
00000050: 4606 743e ad08 29bd ae21 503e 3256 433e
00000060: c46d 4a3c 4d2a 0dbd 7b24 b83d f5af 953d
00000070: 4d7e 72be badb 1dbd 9e17 573d 09d1 493e
00000080: 5fa0 233e 5640 95be d735 7f3e a81f 47be
00000090: 1ea4 91bd 067c 4a3e de45 1a3e 5a37 81be
000000a0: e973 0dbe 793e 6f3d 64b6 5bbe f4a9 65be
000000b0: b96b 9abd dbba 3e3e 3271 43bd b4a4 5abe
000000c0: 98a9 8fbe 673b cf3d cf38 86be fc20 a2bd
000000d0: c664 9f3d c362 163e 0982 f5bd 0aad 35be
000000e0: 4562 983e ebd3 c6bd 57d3 253c 81b2 fabd
000000f0: a4ca 3fbe c467 8ebd e015 84bd 4ee8 dcbd
00000100: 85b8 2d3e 6017 a0be b3df 77be 0b2f 1a3e
00000110: fa05 9b3e d20a 8bbc b282 a13e 10bd 5a3d
00000120: 858d bc3c f253 40be 0352 acbc a9eb 183e
00000130: 6521 363e 4958 5ebe f6ed 7d3b 2ecd 893d
00000140: 49a4 00bd 10ad f83d 253c 0abd 103c 173e
00000150: 8461 593e 00b6 693e f31a 9bbe 83de 10be
00000160: d74a f8bd cbc9 233e 2b86 63bd b157 e4be
00000170: 57cc 83be 0f43 eebd 8e94 53bd fecd 503e
00000180: dd53 32bd df19 f6bb 8ded 56be 5f48 143e
00000190: 87be 9cbe 4aa2 793c 7db4 d7be c37c 443e
000001a0: a192 2fbd f8e9 cbbd 327b 883d 1bf0 85bd
000001b0: caa8 243e 2862 67bc 2305 0e3d 9afd 59be
000001c0: ca7a 703d 1cce c53d e8e4 4fbe 38e1 81be
000001d0: 8e58 773e 092d a53d fdb5 f7bc 3339 55be
000001e0: c77b 2a3e 6b63 a23e 9350 efbd 2996 693e
000001f0: c9f0 1cbe 250c bdbd af1e 633e a444 173e
00000200: 0933 303e 4f1c 92be 6f6d 813d f204 ddbe
00000210: 3df3 7abe 84c7 1a3e 16b2 173d 5dfe 7e3d
00000220: 8fd5 133e e29f 193e 7fbd 3abd bbd3 fa3d
00000230: 282f 5dbe 525e f0be 26e4 9cbe d5e5 b4be
00000240: d0ef 25be 4bb2 39be 7fdb 6cbd 8eef e7bb
00000250: 205f 3abe 0164 42be 97e8 343e ae38 abbd
00000260: 59ad b93d 8eae 9e3e 8b2d b03d 3cb9 283e
00000270: d153 293e d9e3 11be 74dc 263e be93 b33d
00000280: 9633 76be 215f d7be c132 5f3e 70b5 1c3c
00000290: 2a5f ecbd aff6 4c3e 947f 553e f70a b8bd
000002a0: e12a 26be 5ea8 a0bc cf35 9cbd 3f03 253e
000002b0: 1557 c539 34bf 04bf f12d 72be 4991 38be
000002c0: 9d0a 693e 2b4d 7f3c 98ae 0ebe d92b 02be
000002d0: bb96 373e a6b2 9bbe f92a c83c cad7 02bd
000002e0: 96a7 8fbe c2e5 9abd 352f 0a3e 6bb3 1fbe
000002f0: 9c87 5bbb 1c19 79be 15d6 afbe 7e37 94be
00000300: 4c49 35bc 2e54 c43d c518 bebc 42d9 27be
00000310: 26fc acbe 4943 42be 2915 343e ad21 f33d
00000320: f1e3 05bd 188b 81be 87e2 ccbd 65e3 4d3e
00000330: 0c89 903e 2c54 2b3b 2a7c 4a3e 38f0 4fbe
00000340: eb65 99be fb0e dbbd 6eef b2bd 5554 f9bd
00000350: f95e 1a3d bae1 9bbe 3b6d b7bd 0e90 5fbc
00000360: de3c a9bc e07d edbd cb2e 633e 5eb0 973e
00000370: 80cd 633e ebec 513e ebaa abbd 8620 6b3e
00000380: 5b2b e1be 10d8 c83d c12c 6a3e 7f02 8e3e
00000390: 8ba5 0bbe 7ca9 033e 5959 4a3e 734b f6bb
000003a0: 2705 5d3e 64c1 173e 6891 02bc 2846 8a3e
000003b0: 9e85 f33d 1fa7 c2bd f830 163e f464 5dbd
000003c0: b18c ac3d 8465 53bd 66ce 7c3e 7746 84bc
000003d0: a72c 1ebe 0943 48be 0343 9ebb 70ba 893e
000003e0: 7259 86be 3919 12bd 8e5c bebe 607b 803e
000003f0: f137 ffbc 6c8c abbd fd2f 813c 500c 7ebd
0.16207807 -0.038820796 -0.04572497 -0.04097621 -0.18382163 -0.14261372 0.084448084 0.05562632
-0.19979352 -0.10154703 -0.19977595 -0.27646255 -0.203817 -0.15098308 -0.33311966 -0.19636892
0.015749186 -0.2930667 0.32507992 -0.035246395 0.23830518 -0.04126804 0.20325348 0.1907585
0.012355272 -0.03446417 0.08991333 0.07308952 -0.23680992 -0.038539626 0.052512757 0.19708647
0.15979145 -0.29150647 0.24922882 -0.1944567 -0.07111381 0.19773874 0.15065715 -0.25237542
-0.13813747 0.058409188 -0.21456295 -0.22428113 -0.07540078 0.18625967 -0.047715373 -0.21351892
-0.28059077 0.10118752 -0.26215217 -0.079164475 0.07782893 0.14686112 -0.11987693 -0.1774179
0.29762474 -0.09708389 0.010121188 -0.12241078 -0.18729645 -0.069533855 -0.06449485 -0.10786496
0.1696492 -0.31267834 -0.24206428 0.15057008 0.30277997 -0.016972933 0.31545025 0.05340296
0.0230167 -0.18782023 -0.0210352 0.14933647 0.17786177 -0.21713366 0.0038746572 0.06728588
-0.031406675 0.12142384 -0.033748765 0.14769006 0.21228606 0.22823334 -0.30293998 -0.14147381
-0.121236496 0.15994947 -0.055547874 -0.44598153 -0.25741836 -0.11633884 -0.051655345 0.2039108
-0.04353701 -0.0075104083 -0.20989056 0.14480732 -0.3061411 0.015236447 -0.4212989 0.19188218
-0.042864446 -0.099567354 0.06664123 -0.06539937 0.16080013 -0.014122523 0.034672868 -0.21288148
0.05871085 0.09658453 -0.20302165 -0.2536714 0.24154875 0.080652304 -0.030238146 -0.20822601
0.1664878 0.31716475 -0.1168529 0.22811188 -0.15326227 -0.09230832 0.22179674 0.14772278
0.17206968 -0.28537223 0.06319701 -0.43167835 -0.2450685 0.15115172 0.03703507 0.0622543
0.14436935 0.15002397 -0.045590874 0.12247416 -0.2160002 -0.4694696 -0.30642813 -0.35331598
-0.16204762 -0.1813442 -0.057826515 -0.0070781177 -0.1820035 -0.18983461 0.17666851 -0.0836042
0.090662666 0.3099255 0.08602437 0.16476911 0.1653588 -0.14247073 0.16295034 0.08768414
-0.24043116 -0.42064765 0.21796705 0.009564742 -0.115415886 0.20015977 0.20849448 -0.089864664
-0.16227295 -0.019611534 -0.07627451 0.1611452 0.0003763965 -0.5185425 -0.23650338 -0.18024172
0.22757955 0.015582363 -0.1393379 -0.12712039 0.17928593 -0.30409735 0.024434553 -0.031944074
-0.28057545 -0.07563354 0.1349457 -0.15595786 -0.0033497578 -0.24325985 -0.3434302 -0.28948587
-0.011064839 0.095863685 -0.02320517 -0.16391471 -0.33786124 -0.1897098 0.17586197 0.118716575
-0.032688085 -0.25301433 -0.10004144 0.20106275 0.28229558 0.00261427 0.19773927 -0.2030648
-0.2996057 -0.10696217 -0.08737074 -0.12174288 0.03768823 -0.30445653 -0.08956381 -0.013645185
-0.020658907 -0.115962744 0.22185819 0.29626745 0.22246361 0.20500533 -0.083822094 0.22961625
-0.4397839 0.09806836 0.22868635 0.2773628 -0.13637368 0.12857622 0.19760646 -0.0075163185
0.21583997 0.14819866 -0.007969238 0.2700665 0.1189072 -0.09504532 0.14667118 -0.054051355
0.08425272 -0.051610485 0.2468811 -0.016146882 -0.15446721 -0.19556822 -0.0048297658 0.26900053
-0.26240116 -0.035668585 -0.3717999 0.25094128 -0.031154605 -0.08376393 0.015769953 -0.06202346

linear2.bias f4 [3]
00000000: 2915 2b3d 62cc 86bd 0504 8cbd
0.041768227 -0.06581952 -0.06836704
