TARL/projects/snakegame/model/model.pth (torch, 17103 bytes, 4 tensors)

linear1.weight f4 [256, 11]
0	0x3e80d0fb	0.2515944
1	0x3e069ebb	0.13146488
2	0x3e98dfe1	0.29858306
3	0xbd62d3ea	-0.05537788
4	0x3e2ed56a	0.17073599
5	0xbe6c3ca2	-0.23070005
6	0xbe6d285e	-0.2315993
7	0x3e81863d	0.25297728
8	0x3eaf7f8c	0.34276998
9	0x3ed3df46	0.41381282
10	0x3e45adc2	0.19304565
11	0xbe947314	-0.28994048
12	0x3d44ad29	0.0480167
13	0xbe8227f9	-0.25421122
14	0xbe538fd7	-0.2066034
15	0x3e994197	0.29932854
16	0xbe2f463b	-0.17116635
17	0x3d88617d	0.066592194
18	0xbe49b151	-0.19696547
19	0x3e1a0830	0.15042186
20	0xbe8d74cb	-0.27628168
21	0xbeab5344	-0.33461964
22	0x3e67ce5b	0.22637312
23	0x3ecf49ac	0.40485895
24	0x3ea3696b	0.31916365
25	0x3e0906fc	0.1338157
26	0xbda8f406	-0.08249669
27	0xbe2a27ee	-0.16616794
28	0xbd7d8cc8	-0.061901838
29	0x3dc908b4	0.09816113
30	0x3e8eebd1	0.2791429
31	0x3eaffe95	0.34373918
32	0x3d87460d	0.06605158
33	0x3e55f3aa	0.20893732
34	0xbeeae614	-0.4587866
35	0xbdf6af9d	-0.12045214
36	0xbe5f873f	-0.21828936
37	0x3ea35dcd	0.31907502
38	0xbeb8d6fe	-0.36101526
39	0x3e03f3a1	0.12885906
40	0x3dc397c6	0.09550433
41	0xbcf849b7	-0.030308587
42	0xbe6e29dc	-0.23258156
43	0xbcab6b72	-0.020925257
44	0x3d89f9b2	0.06737079
45	0xbe9249ec	-0.28572023
46	0x3f1ee022	0.6206075
47	0xbe2d594d	-0.16928597
48	0xbe35660e	-0.17714712
49	0xbdb3d103	-0.087801
50	0xbe09d168	-0.13458788
51	0x3dbfee93	0.09371676
52	0x3df6baee	0.12047373
53	0x3cad6e3d	0.02117073
54	0xbe022b1d	-0.12711759
55	0x3d6b5e98	0.05746326
56	0x3bdc2c80	0.006719172
57	0xbdb1dc44	-0.086845905
58	0x3e94d6e2	0.29070193
59	0xbe1559d6	-0.14585051
60	0xbe235004	-0.15948492
61	0xbe1e6af9	-0.15470494
62	0xbdb8dd78	-0.09026617
63	0xbe99fccd	-0.30075684
64	0xbe4bc122	-0.19897893
65	0xbdf7265e	-0.12067865
66	0xbebf0def	-0.37315318
67	0xbe707196	-0.2348083
68	0x3f0a7c43	0.5409586
69	0x3c68276e	0.014169557
70	0xbd9aadb6	-0.07552664
71	0xbe3b17f0	-0.1827085
72	0x3dfcf7da	0.123519614
73	0x3e57690f	0.2103617
74	0x3d3262db	0.043551307
75	0xbbefeef7	-0.007322188
76	0x3c05cf77	0.008167139
77	0xbc080fa6	-0.008304512
78	0x3e8076da	0.25090677
79	0x3ed5022c	0.4160322
80	0x3e140fbf	0.14459132
81	0x3dd61a85	0.10454277
82	0xbdf5784a	-0.11985834
83	0xbdba0e5d	-0.09084771
84	0xbdbdb109	-0.092622824
85	0xbd85c06b	-0.065308414
86	0x3d4af58e	0.049550585
87	0x3e75fdc6	0.24022588
88	0xbe80f99a	-0.2519043
89	0x3eeaf2c5	0.45888343
90	0xbe9212ff	-0.28530118
91	0xbe22a67b	-0.1588382
92	0x3e814400	0.25247192
93	0x3e925962	0.2858382
94	0x3e13479c	0.14382786
95	0x3d96533c	0.073400944
96	0xbc8755f7	-0.016520483
97	0x3d7ab94b	0.061211865
98	0xbdd2d235	-0.10294
99	0x3ee0f0fa	0.4393385
100	0xbe686ecf	-0.2269852
101	0x3f04e450	0.5191088
102	0x3e6a2ec6	0.22869405
103	0xbe282163	-0.16418986
104	0xbe605c87	-0.21910296
105	0xbe5b1492	-0.21394566
106	0x3ddf6a2a	0.10908921
107	0x3dbb9656	0.09159534
108	0x3d2ad024	0.041702405
109	0x3d25f721	0.040518884
110	0x3e3fa5ed	0.1871564
111	0x3e40fef5	0.18847258
112	0x3c701be0	0.014655083
113	0x3d8f01a2	0.06982733
114	0x3e2fad7a	0.1715602
115	0xbe879d41	-0.26487163
116	0xbe8d654e	-0.27616352
117	0xbe7fe21f	-0.24988602
118	0xbe22b5d8	-0.1588968
119	0xbe5f48ac	-0.21805066
120	0xbde6bd18	-0.112665355
121	0xbeab6bd1	-0.33480695
122	0xbe180491	-0.14845492
123	0x3d999bfe	0.07500456
124	0xbe89b6da	-0.26897317
125	0x3eaa86c3	0.3330594
126	0x3e9ffcc4	0.31247532
127	0xbd9d4a33	-0.07680168
128	0x3d6e6a95	0.058207113
129	0x3e30a0f7	0.17248903
130	0x3e1830b1	0.14862324
131	0xbe90d3a8	-0.2828648
132	0x3f18a1c3	0.5962183
133	0xbe5e4731	-0.21706845
134	0x3e768f05	0.24077995
135	0xbde9d528	-0.114176095
136	0xbe9077ce	-0.28216404
137	0xbdee2aab	-0.11629232
138	0x3d1f6e5e	0.038923614
139	0xbd135b15	-0.035975534
140	0x3e071377	0.13191019
141	0x3ebd7b71	0.3700824
142	0xbe748496	-0.23878703
143	0x3e94af11	0.29039815
144	0xbce0f1c9	-0.027459042
145	0x3d5895c9	0.05287722
146	0x3e85a417	0.26101753
147	0xbdbdf904	-0.092760116
148	0xbe8cadf9	-0.2747648
149	0xbdf0271b	-0.11726209
150	0xbe499f74	-0.19689733
151	0x3e344824	0.17605644
152	0x3e9309dd	0.28718463
153	0x3e6e5760	0.23275518
154	0x3dd4e60b	0.1039544
155	0xbee47c83	-0.44626245
156	0xbe8a3a32	-0.26997524
157	0x3d83c6d0	0.06434405
158	0xbe32a1d0	-0.17444539
159	0x3e57c9e2	0.21073106
160	0xbe61273d	-0.21987624
161	0x3d08a50c	0.033360526
162	0x3d8e9dc7	0.069636874
163	0x3eb610de	0.35559744
164	0x3e91c0bb	0.28467354
165	0xbd859e4c	-0.06524333
166	0x3e246015	0.16052277
167	0xbd949b06	-0.07256131
168	0xbe877654	-0.26457465
169	0x3e9ab976	0.3021962
170	0xbed077eb	-0.4071649
171	0x3c14927d	0.009068129
172	0x3eaa4f7d	0.3326377
173	0xbe563dfd	-0.20922084
174	0x3edaeed1	0.42760327
175	0x3de8a986	0.11360459
176	0x3f171089	0.59009606
177	0xbe6d16e4	-0.23153263
178	0x3c85355b	0.016260793
179	0xbe4cde80	-0.20006752
180	0xbe131304	-0.14362723
181	0x3d14d3ae	0.036334686
182	0x3e482b42	0.19547752
183	0x3e25a09b	0.16174547
184	0x3dcd5334	0.10025635
185	0xbdfde743	-0.12397625
186	0xbe70e33e	-0.23524186
187	0x3ebb1bd3	0.36544666
188	0xbe1d5fbb	-0.1536855
189	0xbdf2c478	-0.1185388
190	0x3d023dbd	0.03179716
191	0x3e1eaa36	0.15494618
192	0xbeb29a39	-0.34883288
193	0x3cce9c24	0.025220938
194	0xbbe54aea	-0.006997456
195	0xbd657a9c	-0.056025133
196	0x3ec18b84	0.37801754
197	0x3dc8ef5f	0.098112814
198	0xbe5f46fe	-0.21804425
199	0x3e6b7ac5	0.22996052
200	0xbe216f9f	-0.15765236
201	0x3c5a9dd3	0.013343292
202	0x3e5ae67c	0.21376985
203	0xbdbd94d6	-0.09256904
204	0x3d52c0c4	0.051453367
205	0x3d461bfd	0.048366535
206	0xbebb77b9	-0.3661478
207	0x3e156251	0.14588286
208	0x3c939dba	0.018019546
209	0x3e337eb5	0.17528804
210	0xbf25fa22	-0.648348
211	0x3ebd330b	0.36953005
212	0x3c94f3d8	0.01818268
213	0x3e106088	0.14099324
214	0xbdb79a1f	-0.08964943
215	0x3dd06614	0.1017572
216	0x3e0d5d94	0.13805228
217	0x3d46db6d	0.048549104
218	0x3eb296b5	0.34880605
219	0x3e9d2f40	0.3070011
220	0x3d02f55d	0.031972278
221	0x3ad6b68d	0.0016381309
222	0xbeafaa52	-0.34309632
223	0xbe113d5c	-0.14183563
224	0x3d59ceaf	0.053175624
225	0xbebd4501	-0.36966708
226	0x3cb9b4c8	0.022669211
227	0x3e385c21	0.18003894
228	0x3db30c82	0.0874262
229	0x3e49545c	0.19661087
230	0x3d2b4500	0.04181385
231	0x3f084a04	0.5323794
232	0xbecb90fd	-0.39759055
233	0x3ceeede6	0.029166173
234	0x3e3c7ad2	0.18406227
235	0xbe01e40a	-0.12684646
236	0x3d7346f2	0.05939383
237	0xbe3b3d24	-0.18285042
238	0xbe0cdc7e	-0.13755986
239	0x3d889652	0.06669296
240	0x3e9342f8	0.2876203
241	0x3d2d1e88	0.042265445
242	0xbdcc5e2a	-0.09978898
243	0x3e3e7e8b	0.1860296
244	0xbc831dd6	-0.016005438
245	0xbd0245d4	-0.031804875
246	0x3e48d6da	0.1961321
247	0xbddfef66	-0.109343335
248	0xbed6dc0a	-0.4196475
249	0x3c8d757a	0.017267931
250	0xbe735593	-0.23763113
251	0x3dc97cfc	0.09838292
252	0x3eba0eab	0.36339316
253	0x3f08b689	0.53403527
254	0xbf0d6d29	-0.5524469
255	0x3cb9e4d3	0.02269212

linear1.bias f4 [256]
0	0x3c40e090	0.01177229
1	0x3cb008b9	0.021488534
2	0xbdb3e46e	-0.08783804
3	0xbde06fea	-0.10958846
4	0x3e44fc4e	0.19236872
5	0xbe902f65	-0.2816116
6	0xbdcc4c14	-0.09975448
7	0x3e817b29	0.25289276
8	0x3d83cccf	0.064355485
9	0x3e36def0	0.17858481
10	0xbe8cec04	-0.27523816
11	0xbd876443	-0.0661092
12	0x3dead4d0	0.11466372
13	0xbd222e80	-0.039595127
14	0x3e1a1771	0.15048005
15	0xbdbe8160	-0.0930202
16	0xbc418a02	-0.011812689
17	0xbd456863	-0.048195254
18	0xbe3449a9	-0.17606224
19	0xbe305536	-0.17220005
20	0xbd30bf3e	-0.043151133
21	0x3d208f1e	0.039198987
22	0xbaf2cf3a	-0.0018524893
23	0xbcbbaa7d	-0.022908444
24	0xbe43c455	-0.19117863
25	0xbe48a3ec	-0.19593781
26	0xbdf78945	-0.12086729
27	0xbd409ddc	-0.047025546
28	0x3d415469	0.04719964
29	0x3db74566	0.089487836
30	0xbd90c5e4	-0.07068995
31	0xbe44bfeb	-0.19213836
32	0xbe18cbb0	-0.1492145
33	0xbca3c099	-0.019989299
34	0x3e768ff0	0.24078345
35	0xbd832cce	-0.0640503
36	0xbeadbc44	-0.33932698
37	0x3eb323d8	0.34988284
38	0xbe8dec4b	-0.2771934
39	0xbdc7279f	-0.09724354
40	0xbe47aa11	-0.19498469
41	0xbd84d9a4	-0.06486824
42	0xbe90b63a	-0.28264028
43	0xbd329392	-0.043597765
44	0x3e32a12d	0.17444296
45	0x3e5a4297	0.21314465
46	0xbd81a3a0	-0.06330037
47	0xbd6bde23	-0.057584893
48	0xbd9cea06	-0.07661824
49	0xbea95aa4	-0.33076966
50	0x3d4979ff	0.04918861
51	0x3cc8c15a	0.02450626
52	0xbe5421b5	-0.20715983
53	0xbb7219d6	-0.003694167
54	0xbb69d794	-0.0035681473
55	0x3dbc2fef	0.0918883
56	0x3e4756b3	0.19466667
57	0xbc4f123a	-0.012638623
58	0xbe17a5d5	-0.14809354
59	0x3d778c93	0.060436796
60	0xbd127de9	-0.03576461
61	0x3dee3a34	0.11632195
62	0x3dce8399	0.10083694
63	0xbcc6ec9e	-0.02428275
64	0xbbeac65f	-0.007164761
65	0xbe853fc0	-0.260252
66	0x3e022db8	0.12712753
67	0xbdd7d987	-0.10539537
68	0xbe8f2669	-0.27958992
69	0xbddae4d5	-0.106881775
70	0xbe0ab2bc	-0.13544744
71	0x3dde9665	0.10868529
72	0xbe47cdc2	-0.19512084
73	0xbe6493c9	-0.22322
74	0x3dad4085	0.08459572
75	0xbe13fd12	-0.14452007
76	0x3dafc3b2	0.08582248
77	0xbe3f7106	-0.18695459
78	0x3e400208	0.18750775
79	0x3e81ec15	0.2537543
80	0x3e775e28	0.24157012
81	0xbe598124	-0.2124067
82	0xbe3c3bae	-0.18382141
83	0xbe79382a	-0.24337831
84	0x3e69c0a4	0.22827393
85	0x3e1c8f02	0.15288928
86	0x3da86356	0.08222072
87	0x3ec7f923	0.39057264
88	0x3b951103	0.004549147
89	0xbe21adf7	-0.15789019
90	0xbe15e00d	-0.1463625
91	0xbe2f6b2d	-0.17130728
92	0x3c3a46f3	0.011369455
93	0x3a1976c2	0.0005854183
94	0xbde9812c	-0.11401591
95	0xbe9930ff	-0.29920194
96	0x3df04b99	0.11733169
97	0xbd83f8b7	-0.06443923
98	0x3e193264	0.14960629
99	0x3bc0801d	0.0058746473
100	0x3e0b4ce2	0.13603547
101	0x3d013321	0.0315429
102	0xbc15db9c	-0.009146597
103	0x3dd03050	0.10165465
104	0x3cdc2547	0.026873244
105	0x3d1c14d0	0.038105786
106	0xbb94601f	-0.00452806
107	0x3e966b93	0.29378948
108	0xbc5ba1bb	-0.013405259
109	0x3dd06799	0.1017601
110	0xbe9d9443	-0.30777177
111	0xbca8b65a	-0.020594765
112	0xbd8e8ddb	-0.069606505
113	0xbd3722e1	-0.044710997
114	0x3c166a77	0.009180657
115	0xbe4c53e1	-0.19953872
116	0xbe424ceb	-0.18974654
117	0x3e09de7f	0.13463782
118	0xbcfd7641	-0.030940177
119	0x3c27eca1	0.010249288
120	0xbdec2fd2	-0.115325585
121	0xbbdc8693	-0.0067299097
122	0x3da3d15a	0.07998915
123	0x3ccc1fbc	0.024917476
124	0x3c9ee3c5	0.019395718
125	0x3e17d4c8	0.14827263
126	0xbc819bd0	-0.015821368
127	0xbd9cb9b9	-0.07652611
128	0xbe744eb4	-0.23858148
129	0xbe3725f4	-0.17885572
130	0x3e4483d2	0.1919091
131	0xbe2d67f6	-0.16934189
132	0x3ec315f3	0.38102683
133	0xbb116df4	-0.0022190781
134	0x3bac7e5f	0.005264088
135	0xbdc9f696	-0.09861486
136	0xbded182c	-0.11576876
137	0x3d3a4bbb	0.04548238
138	0xbdb618e5	-0.08891467
139	0xbe641701	-0.222744
140	0xbc92cf23	-0.017921036
141	0x3e4a4777	0.19753824
142	0x3e218bd9	0.15776004
143	0x3dd1672f	0.10224759
144	0x3e43c2ff	0.19117354
145	0x3dc87ca0	0.09789395
146	0x3c96a2e1	0.018388214
147	0x3e22746a	0.15864721
148	0xbd15a960	-0.03653848
149	0xbaba7117	-0.0014224377
150	0x3bd9e16d	0.0066491873
151	0xbe2841ba	-0.16431323
152	0xbc52fb0e	-0.012877239
153	0xbe3760fa	-0.17908087
154	0xbddd5c31	-0.108086
155	0x3e5c6221	0.21521808
156	0x3df15388	0.117835104
157	0xbd20638c	-0.039157435
158	0xbe1abaf8	-0.15110385
159	0xbda19886	-0.0789042
160	0xbcd3d0c5	-0.025856385
161	0x3d14af47	0.03629997
162	0xbd00b587	-0.031423118
163	0x3db8689b	0.09004327
164	0x3e6028d0	0.21890569
165	0x3dd93919	0.10606594
166	0xbeb55bdb	-0.35421643
167	0x3d3fe33f	0.04684758
168	0xbd69ca65	-0.057077784
169	0x3e4167ef	0.18887304
170	0xbd318e31	-0.043348495
171	0x3b6e2603	0.0036338575
172	0xbea82957	-0.3284404
173	0xbe694da3	-0.22783522
174	0x3e86ce4c	0.26329267
175	0xbc95790d	-0.018246198
176	0x3e3f5f8d	0.18688793
177	0xbda4b234	-0.08041802
178	0xbe93dee9	-0.28881004
179	0x3e6f3ad2	0.23362282
180	0x3eb04cd6	0.3443362
181	0x3d87bcad	0.06627784
182	0xbe886d21	-0.2664576
183	0xbd95baae	-0.07310997
184	0xbda22597	-0.07917326
185	0xbe3148b6	-0.17312893
186	0xbe899008	-0.268677
187	0x3db785ab	0.08961042
188	0x3d28f536	0.041249476
189	0xbdf880a7	-0.121339135
190	0x3d6ff2d2	0.05858118
191	0xbe846119	-0.2585533
192	0x3e82dcb7	0.25559017
193	0x3d9c30b7	0.07626479
194	0x3dd6f5b1	0.10496081
195	0x3e40d2ac	0.18830365
196	0xbe07dc97	-0.13267742
197	0x3d991ec3	0.074765705
198	0x3d845251	0.06461013
199	0xbd07917a	-0.03309772
200	0xbcda35a3	-0.026636904
201	0x3d969e90	0.07354462
202	0x3d31f9f1	0.043451253
203	0xbe5d058b	-0.21584146
204	0x3da1876e	0.07887159
205	0x3e1d31ac	0.1535098
206	0x3c1c7a45	0.009550636
207	0xbd6bb103	-0.05754186
208	0x3d219e00	0.03945732
209	0xbb919353	-0.0044426112
210	0xbda39fa7	-0.07989436
211	0x3e361937	0.17783056
212	0x3dad926f	0.084751956
213	0x3eacc480	0.33743668
214	0xbea5b900	-0.32367706
215	0xbe10b5dd	-0.14131875
216	0x3dc3bf8b	0.09558018
217	0x3ca5e9c3	0.020253068
218	0xbe994b05	-0.29940048
219	0x3d6cfae1	0.057856444
220	0x3e160baa	0.14652887
221	0x3ed63450	0.41836786
222	0xbdcb932d	-0.09940181
223	0x3d23793a	0.039910533
224	0xbdf18d23	-0.11794498
225	0xbeaa4200	-0.3325348
226	0xbe84f61d	-0.2596902
227	0xbeb17240	-0.34657478
228	0x3e2c555a	0.16829434
229	0xbc93d910	-0.01804784
230	0x3dff2596	0.12458341
231	0xbd2b814e	-0.04187136
232	0xbcf950c0	-0.030434012
233	0x3e9a8b90	0.30184603
234	0x3e6ce757	0.23135124
235	0xbdda7e89	-0.10668666
236	0x3a75d448	0.00093776407
237	0x3e4fa3ec	0.20277375
238	0xbe0c72c7	-0.13715659
239	0x3e9fe5f7	0.31230137
240	0xbdcf6fae	-0.10128723
241	0x3e7b1d5e	0.24522921
242	0x3d1cfda4	0.038327828
243	0x3da39c2d	0.079887725
244	0x3da270c4	0.079316646
245	0xbd616c4d	-0.055034924
246	0x3d1dd1ea	0.038530268
247	0x3e2e7d11	0.17039897
248	0x3d5f5a83	0.054529678
249	0xbe81e341	-0.25368693
250	0xbcbe822e	-0.023255434
251	0x3e923b2c	0.2856077
252	0x3e1ac7d9	0.15115298
253	0xbe3d3a61	-0.18479301
254	0xbd83306e	-0.064057216
255	0xbdb57797	-0.088607006

linear2.weight f4 [3, 256]
0	0xbe1872e8	-0.14887583
1	0x3e4c0f02	0.199276
2	0xbe0701aa	-0.13184229
3	0x3c21db2b	0.009878914
4	0x3c82ea55	0.015980879
5	0xbca56924	-0.020191737
6	0x3bdbb4ed	0.0067049176
7	0xbc1c3a3f	-0.009535371
8	0x3dc34522	0.095346704
9	0xbde5258e	-0.111888036
10	0x3cc9b531	0.024622532
11	0x3e4791f4	0.1948927
12	0xbe8ef6d9	-0.27922705
13	0xbe6a186e	-0.22860882
14	0xbdeb3280	-0.114842415
15	0xbe5fd3b4	-0.21858102
16	0xbe46a234	-0.19397813
17	0xbe8851c9	-0.26624897
18	0x3e2427b9	0.16030778
19	0xbe46a713	-0.19399671
20	0xbdc7110b	-0.097200476
21	0xbe4f3ad3	-0.20237283
22	0xbe36e3dc	-0.17860359
23	0xbe5e597c	-0.21713823
24	0xbf048652	-0.51767457
25	0xbe224ba3	-0.15849166
26	0xbe1488d9	-0.14505328
27	0xbe45c984	-0.19315153
28	0x3dfa516d	0.12222562
29	0x3de06de3	0.10958459
30	0xbec418de	-0.38300222
31	0x3dbdcd7b	0.09267708
32	0xbe15519d	-0.14581914
33	0xbe809468	-0.25113225
34	0x3dfc0ade	0.1230676
35	0xbe945c01	-0.28976443
36	0x3cf0c064	0.029388614
37	0x3ea46865	0.32110897
38	0x3dcfbfbc	0.10143992
39	0x3e6c4fad	0.23077269
40	0xbeb131af	-0.34608218
41	0x3cdca702	0.026935104
42	0xbe86fec9	-0.2636626
43	0xbea1c0be	-0.31592363
44	0xbd0d99b3	-0.034570407
45	0x3dd5ad3c	0.104334325
46	0x3e38a5c5	0.18031986
47	0xbbe7975c	-0.007067604
48	0x3d9449bb	0.072406255
49	0xbcc19302	-0.02362967
50	0xbe002941	-0.12515737
51	0x3e41bf24	0.1892057
52	0xbe7402f1	-0.23829247
53	0xbec21014	-0.37902892
54	0xbe16d0ae	-0.14728042
55	0x3d6cdc46	0.057827257
56	0x3d33c2bd	0.04388689
57	0xbe74616a	-0.23865286
58	0xbe9df957	-0.30854294
59	0xbdeeb36c	-0.11655316
60	0xbdc40db0	-0.09572923
61	0x3d874ba3	0.066062234
62	0xbdc3da40	-0.09563112
63	0x3dd156b0	0.102216125
64	0x3de61422	0.11234309
65	0xbe559fd9	-0.20861758
66	0xbe2e2a93	-0.17008428
67	0xbe1097f1	-0.14120461
68	0x3cbe4d24	0.023230143
69	0xbd85eeb8	-0.065396726
70	0xbbb17439	-0.005415466
71	0xbd4f705b	-0.05064426
72	0xbc174a62	-0.009234043
73	0x3c3219ff	0.010870456
74	0xbe9c46fe	-0.30522913
75	0xbe9bdf97	-0.30444023
76	0x3e0ee9be	0.13956353
77	0xbe861f1a	-0.26195604
78	0xbc85ca40	-0.016331792
79	0x3dfdb436	0.12387888
80	0xbae09c3e	-0.0017136408
81	0xbe508714	-0.20364028
82	0xbe7bbc5b	-0.2458357
83	0xbdc36340	-0.09540415
84	0xbde688e9	-0.11256582
85	0xbc640aa1	-0.01391855
86	0xbcbc3522	-0.022974554
87	0x3e5d2271	0.2159517
88	0x3cc05d8e	0.02348211
89	0xbe4d8ae2	-0.20072511
90	0x3e5e4542	0.21706107
91	0xbdd8db67	-0.10588723
92	0xbe55f4dc	-0.20894188
93	0xbd629771	-0.055320207
94	0x3e2bf964	0.16794354
95	0x3c9dc738	0.019260034
96	0x3e1281de	0.14307353
97	0x3d7dafe3	0.061935317
98	0xbbb83953	-0.005622068
99	0xbda01e10	-0.07818234
100	0xbe7e694d	-0.24844857
101	0x3e799b8c	0.24375743
102	0xbde31084	-0.110871345
103	0xbce9e518	-0.028551623
104	0x3deb33b1	0.11484469
105	0x3e28240b	0.1642
106	0xbe8be04f	-0.2731957
107	0xbbd597f2	-0.0065183574
108	0xbcbcf592	-0.023066316
109	0x3e1f29b2	0.15543249
110	0x3d1b778a	0.0379558
111	0xbe05f233	-0.13080673
112	0x3d1da2a5	0.038485188
113	0xbdf371df	-0.118869536
114	0xbdb6d453	-0.089272164
115	0xbe391638	-0.18074882
116	0x3d383837	0.044975486
117	0xbe2acf90	-0.16680741
118	0xbe8b3093	-0.27185497
119	0xbda2cb92	-0.07948984
120	0xbe755f51	-0.23962142
121	0xbde45296	-0.111485645
122	0xbc78ae74	-0.015178312
123	0xbdc3da28	-0.095630944
124	0x3e32819f	0.17432259
125	0xbdca21ed	-0.09869752
126	0x3ea0ee51	0.3143182
127	0xbe888aca	-0.26668388
128	0x3c4bb897	0.012434146
129	0xbe8d47c0	-0.27593803
130	0xbd6077e2	-0.05480183
131	0xbd506f22	-0.050887235
132	0x3e9409d6	0.28913754
133	0xbdbc316b	-0.09189113
134	0xbdab1af1	-0.08354748
135	0xbd696460	-0.05698049
136	0xbd49cc02	-0.049266823
137	0xbd188ce5	-0.037243742
138	0xbda99444	-0.082802325
139	0x3de607c9	0.11231954
140	0xbda1d9f5	-0.079029
141	0x3dbc0f09	0.09182555
142	0x3e691320	0.22761202
143	0x3da0966b	0.0784119
144	0x3e2e02c1	0.16993238
145	0xbe581891	-0.21103121
146	0xbe08b592	-0.13350514
147	0x3e080e0d	0.1328661
148	0xbd51f094	-0.051254824
149	0x3d99f2f4	0.07517043
150	0xbe82a7fb	-0.25518784
151	0xbe76e03a	-0.24108973
152	0x3e691742	0.22762778
153	0xbda64593	-0.08118739
154	0xbe7c538a	-0.24641243
155	0x3c753120	0.014965326
156	0xbdc8b4d6	-0.09800117
157	0xbdf0a5ae	-0.11750351
158	0x3e7d764c	0.24752158
159	0x3dbffc53	0.09374299
160	0xbcb8b5e3	-0.022547668
161	0xbe8975c2	-0.26847655
162	0x3cf6cda3	0.030127352
163	0xbe527ef5	-0.20556243
164	0xbdcbcbdd	-0.09950993
165	0xbe2e3dae	-0.17015716
166	0x3c43745f	0.0119296005
167	0xbdfafa36	-0.12254755
168	0x3e420a0d	0.18949147
169	0xbcca1d0e	-0.024672057
170	0xbeabbc60	-0.33542156
171	0xbe07d12e	-0.1326339
172	0x3c52c968	0.012865402
173	0xbba6edf8	-0.005094286
174	0x3d2ce7a1	0.042213086
175	0x3e143057	0.14471565
176	0x3e521fb0	0.205199
177	0xbe0a929c	-0.1353249
178	0x3c15d981	0.009146095
179	0x3d8c5046	0.068512484
180	0x3e1f5437	0.15559469
181	0xbe0e647d	-0.1390552
182	0xbc9f2878	-0.019428477
183	0x3e544c3e	0.20732209
184	0xbcd255b2	-0.025675628
185	0xbea9ac15	-0.331391
186	0xbd93edf5	-0.07223121
187	0xbe90cc12	-0.28280693
188	0xbe05cb28	-0.13065779
189	0xbec56ca7	-0.38559458
190	0xbe58e919	-0.2118267
191	0xbba1225c	-0.004917426
192	0x3e1913a1	0.14948894
193	0x3d1cfc41	0.038326506
194	0xb9a5c251	-0.0003161603
195	0x3e1b6d63	0.15178446
196	0xbdb578db	-0.08860942
197	0xbe8a58a6	-0.27020758
198	0xbe7986f8	-0.24367893
199	0xbc1bb46a	-0.009503463
200	0xbe54f3e2	-0.20796159
201	0xbd497f15	-0.04919346
202	0xbe9c6539	-0.30545977
203	0xbd79a5f0	-0.060949266
204	0xbda082cd	-0.07837448
205	0x3e188923	0.14896064
206	0xbd18321a	-0.037157156
207	0xbe0c432d	-0.136975
208	0xbe77ebaa	-0.24210992
209	0xbe5c1f3e	-0.21496293
210	0xbdb89bb3	-0.09014072
211	0x3ba4c58f	0.0050284336
212	0xbdca9ed6	-0.09893577
213	0x3e56eed0	0.20989537
214	0xbe64331b	-0.2228512
215	0x3d842ad9	0.06453485
216	0x3df3cdba	0.119044736
217	0x3e767340	0.24067402
218	0x3a6ee905	0.0009113702
219	0xbc6bdcef	-0.014395936
220	0xbd6e62a4	-0.05819954
221	0x3e4da641	0.20082952
222	0xbe38f21c	-0.18061107
223	0xbda4142c	-0.0801166
224	0xbcbe734d	-0.02324834
225	0x3cc1693c	0.02360975
226	0x3de78a30	0.11305654
227	0xbce2d177	-0.027687771
228	0x3db202ef	0.08691966
229	0xbd804f78	-0.062651575
230	0xbd80db37	-0.06291812
231	0xbd711f99	-0.058868024
232	0xbd64a078	-0.055817097
233	0x3ddac699	0.10682411
234	0x3de06265	0.10956267
235	0xbdd7416f	-0.10510527
236	0xbdb8c1fa	-0.09021373
237	0xbbea93f7	-0.007158752
238	0xbe3634ca	-0.17793575
239	0xbd885031	-0.0665592
240	0xbe354331	-0.17701413
241	0x3d688bbd	0.05677389
242	0xbd8b7d91	-0.06811059
243	0xbd7c5f8b	-0.061614554
244	0x3d31e2b6	0.0434291
245	0xbd2b8c34	-0.041881755
246	0xbe8bf4a9	-0.27335098
247	0xbddba3dd	-0.10724614
248	0xbd89f580	-0.067362785
249	0xbda1401f	-0.07873558
250	0x3e52e405	0.20594795
251	0x3d0f243b	0.03494666
252	0x3c99bf21	0.018767895
253	0xbe24ce36	-0.16094288
254	0xbdd66e70	-0.10470283
255	0xbd818e13	-0.06325927

linear2.bias f4 [3]
0	0x3d3aea8a	0.04563383
1	0xbdd35a01	-0.10319901
2	0xbd3c4a5b	-0.04596935
