Rl_Project1/snakegame/model/model.pth (torch, 17103 bytes, 4 tensors)

linear1.weight f4 [256, 11]
0	0xbe4fd495	-0.20295937
1	0x3e7f4303	0.24927907
2	0x3caa6a8f	0.020802764
3	0x3deecaef	0.116598
4	0xbe39632d	-0.18104239
5	0xbed44c83	-0.41464624
6	0xbd836208	-0.06415182
7	0xbcecc998	-0.028904721
8	0xbd1e3e29	-0.0386335
9	0xbe59262f	-0.21205972
10	0x3e0aee60	0.13567495
11	0x3e4198ce	0.18905947
12	0x3ee2fa77	0.44331715
13	0xbd66d2c4	-0.056353346
14	0x3da73b39	0.08165593
15	0xbe9191b0	-0.28431463
16	0xbe8b6e7c	-0.2723273
17	0x3e6aca14	0.22928649
18	0xbd3db024	-0.04631056
19	0x3e09b7fd	0.13449092
20	0xbe03ddae	-0.12877533
21	0x3c38a268	0.011269189
22	0x3f28d9b1	0.6595717
23	0xbf1ceb67	-0.61296695
24	0x3c8f762e	0.017512407
25	0xbe09f987	-0.13474093
26	0xbdd0d4af	-0.10196816
27	0xbe4fdbc2	-0.20298675
28	0xbdf46689	-0.119336195
29	0xbd82df91	-0.06390298
30	0xbc1022ca	-0.008797357
31	0x3cc9cd76	0.024634104
32	0x3e2e0d73	0.16997318
33	0x3e340d08	0.17583096
34	0x3f21639f	0.63042635
35	0xbe3ae8da	-0.18252888
36	0x3eadddcc	0.3395828
37	0xbf6b4157	-0.91896576
38	0xbe064bd6	-0.13114867
39	0xbe46e6d7	-0.19423996
40	0xbf1086f0	-0.564559
41	0xbe81eef4	-0.2537762
42	0xbeadd658	-0.33952594
43	0x3e003ef9	0.12524022
44	0x3f26397a	0.6493145
45	0xbdd10228	-0.102054894
46	0xbf0e53c9	-0.55596596
47	0xbcbbee35	-0.022940734
48	0x3f3ef2db	0.7458932
49	0x3e1025b8	0.14076889
50	0x3e3446d2	0.17605141
51	0x3e0311cf	0.12799762
52	0xbf02bff5	-0.51074153
53	0x3d880a69	0.066426106
54	0xbe745a84	-0.23862654
55	0x3dcab3ae	0.098975524
56	0x3e37bb96	0.17942652
57	0xbe7025bb	-0.23451893
58	0xbe8ca051	-0.27466062
59	0xbcf779e2	-0.030209485
60	0xbe0c2ab6	-0.13688168
61	0xbee21203	-0.44154367
62	0xbeb5a111	-0.35474446
63	0x3e68f9f5	0.22751601
64	0xbd9a1c62	-0.07524945
65	0xbeb07348	-0.34462953
66	0x3e24c253	0.16089754
67	0xbc805e0a	-0.015669841
68	0x3e490e74	0.1963442
69	0x3c40b3aa	0.011761585
70	0xbced7ae6	-0.028989267
71	0x3cacea53	0.021107828
72	0x3d2e1750	0.0425027
73	0xbead22a9	-0.33815506
74	0xbe4c3b15	-0.19944413
75	0xbe26076d	-0.1621377
76	0xbec433c3	-0.3832074
77	0xbeb90df9	-0.36143473
78	0x3d984595	0.07435147
79	0x3dbffcc8	0.09374386
80	0xbf1abb19	-0.6044174
81	0xbe13dd43	-0.14439873
82	0x3e8f13e5	0.27944866
83	0x3f049099	0.5178314
84	0xbf55449a	-0.833078
85	0xbeea4794	-0.45757735
86	0x3e8a5d65	0.2702438
87	0xbe1f2712	-0.15542248
88	0xbde45dcd	-0.111507036
89	0xbf0f774b	-0.560414
90	0x3e7ee6a2	0.24892667
91	0x3ef9a11d	0.48755732
92	0x3eef2910	0.46711016
93	0xbea6c572	-0.32572514
94	0xbf274865	-0.6534484
95	0xbf4e065e	-0.80478466
96	0xbf4c1071	-0.7971259
97	0x3dedc811	0.11610425
98	0x3f09fcce	0.53901374
99	0xbf579267	-0.8420777
100	0x3e9adfa8	0.3024876
101	0x3e9801ea	0.2968896
102	0xbe5d6b75	-0.21623023
103	0xbda523c3	-0.08063462
104	0xbc7754fb	-0.0150959445
105	0xbe0eec47	-0.1395732
106	0xbe50f31f	-0.20405243
107	0x3e3c06e3	0.18362002
108	0xbe287db6	-0.16454205
109	0x3e66918b	0.22516458
110	0x3e6f0e11	0.2334521
111	0x3ec26c65	0.37973323
112	0x3e70f2d7	0.23530136
113	0xbec12cdf	-0.37729546
114	0x3de75d39	0.11297078
115	0xbe50f3c3	-0.20405488
116	0xbe570737	-0.20998846
117	0x3eca9291	0.39564946
118	0x3de5dd7e	0.11223887
119	0x3eafee28	0.34361386
120	0x3dd3c039	0.10339398
121	0xbd82c499	-0.06385154
122	0x3ef78043	0.48340043
123	0x3d522320	0.05130303
124	0xbe40d830	-0.18832469
125	0x3e9b40d1	0.30322888
126	0xbee31c82	-0.44357687
127	0xbcaee5f9	-0.021349894
128	0xbeff8d62	-0.49912554
129	0xbdd70b53	-0.10500207
130	0xbe5be96c	-0.21475762
131	0x3d8dc021	0.06921411
132	0x3ee66e25	0.4500591
133	0x3e8377cc	0.25677335
134	0xbf4554bc	-0.7708242
135	0xbb6e5e14	-0.0036371993
136	0x3eb5d36e	0.3551287
137	0xbed94d2a	-0.42441684
138	0x3eb6c327	0.35695764
139	0xbc84f279	-0.016228901
140	0xbe79ee80	-0.24407387
141	0x3f02b9bb	0.5106465
142	0xbee9bbca	-0.45651084
143	0x3db1bfa1	0.086791284
144	0xbeb2ede2	-0.34947115
145	0xbc9c11f3	-0.019051528
146	0xbe984524	-0.2974025
147	0x3defb61a	0.11704655
148	0xbe912270	-0.28346586
149	0xbe6cc728	-0.23122847
150	0xbea0d8e8	-0.31415486
151	0xbe8b402f	-0.27197406
152	0xbdffc8d8	-0.1248948
153	0xbe6d5117	-0.23175465
154	0xbee7b449	-0.45254734
155	0xbe4b4fbb	-0.19854634
156	0xbe4a7d67	-0.197744
157	0x3f1381be	0.57619846
158	0x3f126549	0.571858
159	0xbda12e37	-0.07870143
160	0xbf3cbb3b	-0.7372319
161	0x3dfe2ba6	0.12410669
162	0x3f3959ea	0.7240282
163	0xbf5e7a01	-0.86904913
164	0xbf311a3d	-0.6918066
165	0xbe99d659	-0.30046347
166	0x3dbcf29c	0.092259616
167	0xbc51b912	-0.012800472
168	0xbe29fa89	-0.16599478
169	0x3cd6a9d0	0.02620402
170	0xbd4dc0f6	-0.05023285
171	0xbeb1a441	-0.34695628
172	0x3e4561b7	0.19275557
173	0xbe2f736e	-0.17133877
174	0xbcd5e4f1	-0.026110144
175	0x3d5f7e97	0.054564085
176	0xbe19fc89	-0.15037741
177	0xbd16b368	-0.03679219
178	0x3e5314be	0.20613381
179	0xbcbd5a7a	-0.023114432
180	0xbe196f04	-0.14983755
181	0xbe9ecd29	-0.310159
182	0xbd1ca023	-0.038238656
183	0xbe84c4a8	-0.25931287
184	0x3e5d02c5	0.21583088
185	0xbeb17473	-0.34659156
186	0x3de3bf94	0.11120525
187	0x3e650436	0.22364888
188	0x3e2676ee	0.16256306
189	0x3e007134	0.12543184
190	0xbe1a64ed	-0.15077563
191	0xbebc248d	-0.36746636
192	0xbe021e0e	-0.12706777
193	0xbd78533a	-0.060626246
194	0x3eceeb59	0.4041393
195	0x3f0ff71e	0.56236446
196	0x3ebd6a03	0.36994943
197	0x3f09fc2f	0.53900427
198	0x3eecb880	0.46234512
199	0x3f0c178a	0.5472342
200	0xbedac00c	-0.42724645
201	0xbeb0a31d	-0.34499446
202	0x3ed9b274	0.4251896
203	0xbe16f4d8	-0.14741838
204	0xbdb75b78	-0.08952993
205	0x3d01c0a7	0.03167787
206	0xbf113b1e	-0.5673083
207	0x3dbd1bee	0.09233843
208	0xbe9afe10	-0.3027196
209	0x3d785580	0.060628414
210	0x3f047da8	0.51754236
211	0x3e3b997d	0.1832027
212	0xbe0a7e9c	-0.1352486
213	0x3c4ccf7c	0.01250064
214	0x3b49e0aa	0.0030804076
215	0xbd94e415	-0.07270066
216	0x3ed5aa72	0.41731602
217	0x3ec753e5	0.38931194
218	0x3ef439af	0.4770026
219	0x3ef6dfab	0.4821752
220	0x3ec1b5a3	0.3783389
221	0xbe6c2fc5	-0.23065098
222	0xbbdb0353	-0.006683746
223	0xbdeac1e9	-0.11462767
224	0xbe1a99e8	-0.15097773
225	0xbe6ade15	-0.2293628
226	0xbebc4121	-0.3676844
227	0xbe2bc0d2	-0.16772774
228	0xbe9eb7df	-0.30999658
229	0xbdc651fc	-0.09683606
230	0xbdd844b6	-0.105599806
231	0xbe8cef18	-0.27526164
232	0xbd66666d	-0.056250025
233	0xbe5f78d8	-0.21823442
234	0x3dac841f	0.084236376
235	0xbe07de50	-0.13268399
236	0x3daa0425	0.08301572
237	0xbe1836f1	-0.14864708
238	0x3e226032	0.15857008
239	0xbe9255f4	-0.28581202
240	0x3be019f7	0.0068390328
241	0xbec632fb	-0.3871077
242	0xbe9702c0	-0.29494286
243	0xbd4af1c7	-0.049546983
244	0xbe0ed7f9	-0.13949575
245	0x3e2938ea	0.16525617
246	0x3e1d4b67	0.15360795
247	0xbb8d899c	-0.004319383
248	0x3da7ccff	0.08193397
249	0xbe1d5de7	-0.15367852
250	0xbe16702a	-0.14691225
251	0xbd8a3368	-0.06748086
252	0xbdde7f71	-0.10864151
253	0x3eb4c34e	0.35305256
254	0xbe8c4518	-0.27396464
255	0xbef999cc	-0.4875015

linear1.bias f4 [256]
0	0xbf183359	-0.5945335
1	0xbefeaebd	-0.4974269
2	0xbe427f5b	-0.18993895
3	0x3e40f570	0.18843627
4	0xbdfa3a79	-0.12218184
5	0xbefa577a	-0.48894864
6	0xbe9a8340	-0.3017826
7	0x3e378cf1	0.17924859
8	0x3dd04d54	0.10170999
9	0x3d813354	0.06308618
10	0xbed5cb40	-0.4175663
11	0xbed37e0b	-0.413071
12	0xbe8628cc	-0.26203
13	0xbdd60081	-0.10449315
14	0x3d830349	0.06397111
15	0xbebd3c24	-0.36959946
16	0xbf224e8a	-0.6340109
17	0xbee1c9e9	-0.44099358
18	0xbe60ba12	-0.2194598
19	0xbeedd36f	-0.46450374
20	0xbe972795	-0.29522386
21	0xbe85ffab	-0.26171622
22	0xbe007142	-0.12543204
23	0x3e1349ae	0.14383575
24	0xbeb277d5	-0.3485705
25	0xbec68f8d	-0.38781396
26	0xbe694b19	-0.22782554
27	0x3db795f4	0.08964148
28	0xbe968aab	-0.2940267
29	0xbe1adb10	-0.15122628
30	0xbdc0dc80	-0.09417057
31	0xbebfadcb	-0.3743728
32	0xbe49b6c1	-0.19698621
33	0x3e22d241	0.15900518
34	0xbd9d1a29	-0.07671005
35	0xbeb7e8e4	-0.3591987
36	0xbe711584	-0.23543364
37	0xbf1ba91c	-0.60804915
38	0x3e0e52cb	0.1389877
39	0xbf06299d	-0.52407247
40	0xbed82e15	-0.42222658
41	0xbe41f7df	-0.18942212
42	0xbd8abbf7	-0.06774133
43	0xbedbceb0	-0.42931128
44	0xbeb551c0	-0.35413933
45	0xbe2a2396	-0.16615137
46	0xbe5a2659	-0.21303691
47	0xbec2b499	-0.3802841
48	0xbf008c61	-0.502142
49	0x3e4a481c	0.1975407
50	0xbeda1e75	-0.42601362
51	0xbea37635	-0.31926122
52	0xbebf584a	-0.37372047
53	0x3dc082f2	0.09399976
54	0xbc1851e0	-0.009296864
55	0xbea1174d	-0.3146309
56	0xbea8f170	-0.32996702
57	0xbf042b6c	-0.51628757
58	0xbe98f707	-0.29875967
59	0xbe903c6a	-0.28171092
60	0xbe85bc89	-0.26120403
61	0xbec3e33d	-0.38259307
62	0xbf11851b	-0.5684373
63	0xbf08a499	-0.53376156
64	0xbca13e00	-0.019682884
65	0xbe36bd1d	-0.17845578
66	0xbed5bc2c	-0.41745126
67	0xbd61f1e0	-0.05516231
68	0xbe897d78	-0.26853538
69	0xbe49591c	-0.19662899
70	0xbefd2cb5	-0.4944817
71	0xbd4fd8d1	-0.05074388
72	0xbebf407c	-0.37353885
73	0xbe6c4335	-0.23072512
74	0xbdd008b9	-0.10157914
75	0x3ede6f36	0.43444222
76	0xbeed1297	-0.46303245
77	0xbde775a1	-0.11301733
78	0xbeb0d79f	-0.34539506
79	0xbdc58699	-0.09644813
80	0x3eb26c65	0.34848323
81	0xbe9a0c6d	-0.30087605
82	0xbe653c89	-0.22386374
83	0xbe0cbfd6	-0.13745055
84	0xbe74e91f	-0.23917054
85	0xbeb11854	-0.34588873
86	0xbe9946b3	-0.29936752
87	0xbee0d00c	-0.43908727
88	0x3eb17c29	0.3466504
89	0xbedd5a08	-0.4323275
90	0xbeca9ed5	-0.39574304
91	0xbe81bb75	-0.2533833
92	0xbebfec23	-0.37484846
93	0xbe8d135a	-0.27553827
94	0xbd5f0178	-0.05444476
95	0xbe575820	-0.21029711
96	0xbea6f574	-0.3260914
97	0xbf2ef1b8	-0.68337584
98	0xbd2f0633	-0.04273052
99	0xbee626a6	-0.4495136
100	0xbe24d4bb	-0.16096775
101	0xbe7b3f57	-0.24535881
102	0xbe68bed2	-0.22729042
103	0xbea13da6	-0.31492347
104	0xbea2c564	-0.31791222
105	0xbdad36e8	-0.08457738
106	0xbf205de1	-0.6264325
107	0xbe5c268a	-0.21499076
108	0xbe4f07cc	-0.20217818
109	0xbeaaffc9	-0.33398274
110	0xbe481c71	-0.195421
111	0xbe8e63b1	-0.27810434
112	0xbd9c64e9	-0.076364346
113	0xbedbbf6a	-0.42919475
114	0xbe5005a7	-0.20314656
115	0xbe90ba2a	-0.28267032
116	0xbe9dcdd6	-0.30821103
117	0xbde84c6f	-0.113427036
118	0x3e7c8931	0.2466171
119	0xbf20a97c	-0.6275861
120	0xbddfff19	-0.10937328
121	0xbee0b607	-0.43888876
122	0xbec9a220	-0.39381504
123	0xbeb5469d	-0.35405436
124	0xbe9511d4	-0.29115164
125	0xbeb999f6	-0.36250275
126	0x3e935111	0.28772786
127	0xbea48f9a	-0.3214081
128	0x3e9f565e	0.3112058
129	0xbe18ff07	-0.14941035
130	0xbe885794	-0.26629317
131	0xbe9729eb	-0.29524168
132	0x3e63664e	0.22206995
133	0xbed005c6	-0.40629405
134	0xbc0188c0	-0.007906139
135	0x3c955409	0.018228548
136	0xbe95d743	-0.29265794
137	0xbeccd4b5	-0.40006033
138	0xbe18f79c	-0.14938205
139	0xbf293936	-0.6610292
140	0xbe2756f6	-0.16341767
141	0xbe156f98	-0.14593351
142	0xbe5ec4e3	-0.21754794
143	0xbed64a1a	-0.4185341
144	0xbec1329b	-0.3773392
145	0xbed14484	-0.40872586
146	0xbe68fe23	-0.22753195
147	0x3f2fed44	0.68721414
148	0xbdc0d502	-0.09415628
149	0xbd86a094	-0.065735966
150	0xbe62c577	-0.2214564
151	0xbe3c0e74	-0.18364888
152	0x3e861587	0.261883
153	0xbf1eaf5f	-0.61986345
154	0xbe9e4085	-0.309086
155	0x3c1acd28	0.009448327
156	0xbe9b72ec	-0.30361116
157	0xbea0d850	-0.31415033
158	0xbea5a8d0	-0.32355356
159	0xbf14814c	-0.5800979
160	0xbecd0d26	-0.40049094
161	0xbdf07d44	-0.117426425
162	0xbe749e7f	-0.23888586
163	0xbe937170	-0.28797483
164	0xbe86762a	-0.26262027
165	0x3dca723e	0.09885071
166	0xbead7ad3	-0.3388277
167	0x3e962810	0.2932744
168	0xbe1246ab	-0.1428477
169	0xbeecbf6b	-0.4623979
170	0xbe93c3f4	-0.28860438
171	0xbd4d981f	-0.050193902
172	0x3f053ca0	0.5204563
173	0xbe36b1cf	-0.17841266
174	0x3da42e42	0.080166355
175	0xbef9d86e	-0.48797935
176	0xbe03ea7e	-0.1288242
177	0x3e58859f	0.21144722
178	0x3e57e132	0.21081999
179	0xbdd55c20	-0.10417962
180	0xbe927caf	-0.2861075
181	0xbe805575	-0.250652
182	0x3f07baa2	0.53019154
183	0xbe74258d	-0.2384245
184	0x3f560d97	0.83614486
185	0xbd512881	-0.05106402
186	0x3ee30d70	0.4434619
187	0x3ef28c2f	0.47372577
188	0xbe145c41	-0.14488317
189	0x3eb590b4	0.35461962
190	0xbe519cff	-0.20470046
191	0x3d8d3629	0.06895096
192	0x3e2d006e	0.16894695
193	0xbde94f7e	-0.11392115
194	0xbeccf28b	-0.40028796
195	0xbed6c9b7	-0.4195077
196	0xbe90b2ba	-0.28261358
197	0xbd253ddb	-0.040342193
198	0x3e981446	0.29702967
199	0xbe2f2c55	-0.17106755
200	0xbe298061	-0.16552879
201	0xbe2bf982	-0.16794398
202	0x3d59c233	0.05316372
203	0x3e012641	0.12612249
204	0xbe74560d	-0.23860951
205	0xbf1dcab1	-0.6163741
206	0x3e0a0754	0.13479358
207	0xbea8e01e	-0.32983488
208	0xbdc1e052	-0.09466614
209	0xbed1853f	-0.4092197
210	0xbe6d9185	-0.23200043
211	0xbe96cd22	-0.2945338
212	0xbee1d01c	-0.44104087
213	0xbf0c0b18	-0.5470443
214	0xbe929bd2	-0.28634506
215	0xbe929d5a	-0.28635675
216	0x3cc6c6a2	0.024264637
217	0xbe752913	-0.2394145
218	0x3e2aa19a	0.16663209
219	0xbec1a84c	-0.37823713
220	0x3d348776	0.044074498
221	0x3f284e37	0.65744346
222	0xbe4c8c5e	-0.19975421
223	0x3e67b121	0.22626163
224	0xbe2ebeb5	-0.17064936
225	0xbeae860c	-0.34086645
226	0x3e901326	0.2813961
227	0xbd9ec0bd	-0.07751606
228	0xbd9807ba	-0.07423349
229	0xbc58e8da	-0.01323911
230	0xbc2b1481	-0.0104419
231	0xbdc2f6dd	-0.09519742
232	0xbf10f43b	-0.56622666
233	0x3d590157	0.052979793
234	0xbeeb7ba9	-0.45992783
235	0xbc3e0956	-0.011598906
236	0xbe0671e3	-0.13129382
237	0xbe721b5e	-0.23643252
238	0xbf187ad5	-0.59562427
239	0xbebe9c17	-0.37228462
240	0xbe8397c2	-0.2570172
241	0xbe757320	-0.23969698
242	0xbeac2970	-0.33625364
243	0xbee3acf6	-0.44467896
244	0x3ea707ff	0.32623288
245	0x3bf93083	0.00760466
246	0x3f01b048	0.5065961
247	0xbe095377	-0.13410746
248	0xbe133d34	-0.14378816
249	0xbd9d905e	-0.076935515
250	0xbe9bb83c	-0.30413997
251	0x3e4cf692	0.20015934
252	0xbed32f88	-0.412472
253	0xbe90754f	-0.282145
254	0x3e82d3a2	0.25552088
255	0xbe0ae6bb	-0.13564579

linear2.weight f4 [3, 256]
0	0x3d45702f	0.04820269
1	0x3c277888	0.010221608
2	0xbdc6204a	-0.096741274
3	0x3de1e6b7	0.110303335
4	0xbe58ca20	-0.21170855
5	0x3c2104a2	0.009827765
6	0xbd716951	-0.05893833
7	0x3ef97c53	0.48727664
8	0xbead270a	-0.33818847
9	0x3da2d9b0	0.07951677
10	0xbdc474e0	-0.09592605
11	0xbda25b77	-0.07927602
12	0xbeab9e06	-0.33519
13	0x3d44d6b6	0.048056327
14	0x3f3b67bc	0.7320516
15	0x3c588242	0.01321465
16	0xbca6bdc2	-0.020354155
17	0xbe386372	-0.18006685
18	0xbdc19570	-0.09452331
19	0xbe285318	-0.16437948
20	0xbe5ec608	-0.2175523
21	0x3d5fb003	0.054611217
22	0xbcc1116b	-0.023567876
23	0x3f00c310	0.5029764
24	0xbdcaa834	-0.098953635
25	0xbe298d7a	-0.16557875
26	0xbcbf2afc	-0.023335926
27	0x3c88868c	0.01666572
28	0x3cb75424	0.022378989
29	0x3c7dcacd	0.015490246
30	0x3eee33ba	0.4652384
31	0xbe76019f	-0.24024056
32	0x3cee6840	0.029102445
33	0x3f1f50c2	0.622326
34	0xbcd40686	-0.025882017
35	0x3c5720d2	0.013130384
36	0x3dfb3a48	0.12266976
37	0xbdb9c322	-0.09070422
38	0x3e844237	0.25831768
39	0xbe11f29c	-0.14252704
40	0xbe5805f8	-0.21096027
41	0x3bde9961	0.0067931865
42	0xbf16f41a	-0.5896622
43	0xbd2afe06	-0.041746162
44	0x3b6c6904	0.0036073336
45	0xbbdc83c0	-0.006729573
46	0x3e5ec66b	0.21755378
47	0xbc55eb62	-0.013056608
48	0xbec51345	-0.38491264
49	0x3ea51cc8	0.3224852
50	0xbe222f0c	-0.1583826
51	0x3c6f998b	0.01462401
52	0xbe2b1355	-0.16706593
53	0xbdc8f52b	-0.09812387
54	0x3e570377	0.20997415
55	0xbe596e17	-0.21233402
56	0xbbebe380	-0.007198751
57	0xbe5c491a	-0.21512261
58	0xbe4da20a	-0.20081344
59	0xbe080c5e	-0.13285968
60	0x3c083c0c	0.008315098
61	0xbec45b81	-0.38351062
62	0xbe4a5b74	-0.19761449
63	0xbc1f0829	-0.009706535
64	0xbe98ec93	-0.29867992
65	0x3c9adf92	0.018905435
66	0xbc4d0bae	-0.012514992
67	0x3caebf0d	0.021331334
68	0xbe8ee58e	-0.2790951
69	0x3e7eea94	0.24894172
70	0xbd4c2f78	-0.049849957
71	0xbea351e7	-0.31898424
72	0xbe1b5b44	-0.15171534
73	0x3d66c4d4	0.056340054
74	0x3e68d386	0.2273694
75	0x3e9f3fe0	0.3110342
76	0x3998810f	0.00029087855
77	0x3cd7960d	0.026316667
78	0xbdad1630	-0.084514976
79	0xbcac1494	-0.021005906
80	0x3ee1da1a	0.4411171
81	0xbc595c40	-0.013266623
82	0xbc1fce6b	-0.009753804
83	0xbd8308d6	-0.0639817
84	0xbdc43dea	-0.09582122
85	0xbd17d123	-0.037064683
86	0xbd8a34c6	-0.06748347
87	0x3df31da0	0.11870885
88	0x3d56a01a	0.05239878
89	0x3dbe566b	0.09293827
90	0xbc616565	-0.0137570845
91	0xbc3a5030	-0.011371657
92	0xbd28a306	-0.041171096
93	0xbeb1e9f3	-0.34748802
94	0xbddb9658	-0.10722035
95	0xbd12db7c	-0.035853848
96	0xbcd89219	-0.026436852
97	0xbd8eb7bd	-0.06968639
98	0x3ddac204	0.10681537
99	0xbd0c5ad6	-0.034266315
100	0xbd9a5ed2	-0.07537617
101	0xbb8bb00b	-0.0042629293
102	0xbf122b6b	-0.570975
103	0xba0baa5a	-0.00053278136
104	0x3b848de5	0.0040452355
105	0x3b3203a5	0.0027162817
106	0xbc84f4ee	-0.016230073
107	0xbc8809a9	-0.016606169
108	0xbdd6adae	-0.104823455
109	0xbd9cb202	-0.0765114
110	0xbef045d0	-0.46928263
111	0x3d321382	0.043475635
112	0xbe562209	-0.20911421
113	0xbe14aa1d	-0.14518018
114	0x3c28f063	0.010311219
115	0xbdb29a13	-0.087207936
116	0xbd45e09e	-0.048309915
117	0xbd052d12	-0.032513686
118	0x3ebbd386	0.36684817
119	0x3c01443e	0.007889805
120	0x3cc3a3c8	0.023881808
121	0xbcbfca8b	-0.02341201
122	0xbbec7735	-0.007216359
123	0xbe06a561	-0.13149025
124	0xbcfb8805	-0.030704508
125	0xbbdeac16	-0.0067954166
126	0x3ecb6619	0.39726332
127	0xbd8e5b7f	-0.06951045
128	0x3ef134dd	0.47110644
129	0xbe8cc38f	-0.2749295
130	0x3b1790d1	0.0023127089
131	0xbc7e7bc9	-0.015532442
132	0x3f12d30e	0.57353294
133	0x3c6990ac	0.014255684
134	0xbce8b7ac	-0.028407894
135	0x3e3cf8d9	0.18454303
136	0xbdb5b991	-0.088732846
137	0xbd6a5340	-0.0572083
138	0xbd13148d	-0.03590827
139	0x3d843ca6	0.0645688
140	0xbf0c5932	-0.548236
141	0x3ca27d9e	0.01983529
142	0xbc20a9ac	-0.009806078
143	0xbd0f2c01	-0.034954075
144	0xbe2a530e	-0.16633245
145	0xbad3af7b	-0.001615032
146	0xbc8c3108	-0.017113224
147	0x3eab81f7	0.33497593
148	0xbec8b77e	-0.39202493
149	0xbd1879fa	-0.0372257
150	0x3ddc92ed	0.10770211
151	0xbea01e32	-0.31273037
152	0x3e2b85ef	0.1675031
153	0xbd056173	-0.032563638
154	0xbd8808a3	-0.06642272
155	0x3ece528e	0.4029736
156	0xbba6091c	-0.005067004
157	0xbe483d84	-0.19554716
158	0xbc1ec774	-0.009691108
159	0xbe9725b5	-0.29520956
160	0xbcea5786	-0.028606188
161	0xbd26a91b	-0.040688615
162	0xbed4ddfd	-0.41575614
163	0xbdde9b30	-0.108694434
164	0x39a7a320	0.0003197426
165	0x3e4e3bb9	0.2013997
166	0xbd1e0d1c	-0.03858672
167	0x3f08eefb	0.53489655
168	0xbf47cce9	-0.78047043
169	0xbdf448cf	-0.1192795
170	0xbd023e90	-0.031797945
171	0xbc55fdbe	-0.013060985
172	0x3f300ec0	0.68772507
173	0x3cc92dec	0.02455803
174	0x3ee203ef	0.44143626
175	0xbe8b1642	-0.2716542
176	0xbe85d962	-0.26142412
177	0x3eabf6ce	0.33586735
178	0x3e49c4f3	0.19704036
179	0xbd872b33	-0.066000365
180	0xbe05859b	-0.13039248
181	0x3b2c91fc	0.002633213
182	0x3f24625d	0.6421259
183	0xbd524ad6	-0.0513409
184	0x3e595c6b	0.21226661
185	0x3e15107d	0.14557071
186	0x3ec719de	0.38886923
187	0x3ee9bc81	0.4565163
188	0xbb138d66	-0.00225147
189	0x3df8e8da	0.12153788
190	0xbe12962b	-0.14315097
191	0xbf2022ff	-0.625534
192	0x3f15c0c6	0.58497274
193	0xbed2c585	-0.4116632
194	0xbd22c44b	-0.03973798
195	0x3cb92225	0.02259929
196	0xbde1ba8d	-0.1102191
197	0x3df4e257	0.119572334
198	0x3eab5d19	0.33469465
199	0xbd07b001	-0.033126835
200	0x3d7a2c4a	0.061077394
201	0x3d62104c	0.055191323
202	0xbf74ddbc	-0.9565084
203	0x3f1be8ad	0.6090191
204	0xbcd17d82	-0.025572542
205	0xbe6ae96d	-0.22940607
206	0x3ec7d2bf	0.39027974
207	0xbe9df365	-0.30849758
208	0xbd2c89f6	-0.042123757
209	0xbd6e95da	-0.05824838
210	0x3d0329da	0.032022335
211	0x3d41ac49	0.047283445
212	0xbc0db6a8	-0.008649506
213	0xbe5f0d67	-0.21782456
214	0x3cd1cdd8	0.02561085
215	0x3d0d9adb	0.03457151
216	0xbd157e3a	-0.036497332
217	0x3d439d28	0.047757298
218	0x3f0dbe9a	0.5536896
219	0x3c84837a	0.016175974
220	0xbeea1cc3	-0.45725068
221	0x3f3561aa	0.7085215
222	0xbe89fb65	-0.2694961
223	0x3e9a2d3f	0.30112645
224	0xbe122e90	-0.14275575
225	0xbbbbb159	-0.0057279286
226	0x3f1de70e	0.61680686
227	0x3e32c685	0.17458542
228	0xbf0cb065	-0.54956657
229	0xbdd8cc71	-0.10585869
230	0x3e215f60	0.15759039
231	0xbdb7f054	-0.08981386
232	0x3d06053d	0.03271984
233	0xbf2711eb	-0.65261716
234	0xbdc3c5bf	-0.095592014
235	0xbd1819ca	-0.03713397
236	0x3ec2de82	0.38060385
237	0x3d3ccc26	0.04609313
238	0xbed21020	-0.41027927
239	0xbdfe6b71	-0.124228366
240	0xbdc4856f	-0.09595763
241	0xbd70d76f	-0.058799203
242	0xbd943e50	-0.07238448
243	0x3cf0c9b1	0.029393049
244	0x3f34b7bc	0.70592856
245	0xbea88ba3	-0.32919034
246	0x3eefe242	0.4685231
247	0x3b8bb2fa	0.004263279
248	0xbc22f273	-0.0099455
249	0x3cbb3ffa	0.022857655
250	0xbe5a9059	-0.21344127
251	0xbdbb76e9	-0.0915354
252	0x3d672e97	0.056440916
253	0xbb44def3	-0.0030040115
254	0x3f7a7970	0.9784155
255	0xbd6d6bbe	-0.05796408

linear2.bias f4 [3]
0	0x3f00ed75	0.5036233
1	0x3d2bbafd	0.041926373
2	0x3dade2ec	0.084905475
