Rl_Project1/snakegame/model/model.pth (torch, 17103 bytes, 4 tensors)

linear1.weight f4 [256, 11]
000000 9f 6d 19 3c 07 e0 85 bd 65 63 8a 3e 49 40 6b be
       0.009364515 -0.065368704 0.27028957 -0.22973742
000010 56 b3 36 be 92 98 82 3e f2 cc 93 3d 4a ab 10 be
       -0.17841849 0.25507027 0.072168246 -0.14127842
000020 d3 bf 01 3e 71 b0 84 be fb 33 80 3d 8e 95 80 be
       0.12670831 -0.25915864 0.062599145 -0.251141
000030 c8 91 17 3e d5 fc 2d bc b0 ac 6b 3e 58 4a 4c bd
       0.14801705 -0.010619362 0.23015094 -0.049875587
000040 ee a6 71 be 85 a1 d1 3d 3a f7 7e be 95 78 8d be
       -0.23598835 0.102358855 -0.24898997 -0.2763106
000050 55 41 08 be e1 69 54 3d 50 49 59 be fb bf 9b 3e
       -0.13306172 0.051858786 -0.21219373 0.30419907
000060 cc d9 e9 3d 5c 9f 7c bd 64 d5 56 3e d5 47 8a 3e
       0.114184946 -0.061675414 0.2097984 0.27007928
000070 85 65 08 3d 75 ad 03 be aa 48 22 be 93 50 12 be
       0.03329994 -0.12859137 -0.15848032 -0.14288549
000080 d7 3f 1b 3e ad b4 96 bd ab 40 61 be ce e5 76 3e
       0.15161072 -0.0735868 -0.21997325 0.24111101
000090 52 32 40 3e 1a e0 d5 bd 0f 1d 8c 3e 92 2c 3f 3e
       0.18769196 -0.104431346 0.2736592 0.18669346
0000a0 cc 08 1a 3d 31 4f a4 3d d7 17 bb 3d 1b 3c 97 3c
       0.037606046 0.08022917 0.091354065 0.018461278
0000b0 96 60 9c 3c e0 f8 04 3e 30 fc b1 bc d2 ce 43 3c
       0.019089025 0.12985563 -0.021726698 0.011951165
0000c0 8c 0c b7 bd 77 0e 9e bd 62 2d e5 3d 08 3b dd 3b
       -0.0893794 -0.07717603 0.11190297 0.006751422
0000d0 36 a4 49 3e 79 34 2a be aa 43 09 be c8 12 24 3e
       0.19691548 -0.16621579 -0.13404718 0.1602279
0000e0 42 2a 62 3e a4 2f 39 3e 9e 54 5c bd a5 6e 89 be
       0.22086433 0.1808458 -0.053791635 -0.26842228
0000f0 62 00 ee 3d 99 0d 6c be 2e 0d 6e be aa b2 57 3e
       0.11621167 -0.23052062 -0.23247215 0.21064249
000100 ae 62 ae bc 6c 31 48 be 8a 2b 14 3d cd 68 65 3d
       -0.021287289 -0.19550103 0.036174335 0.05600815
000110 3c bd c3 3d 10 6e 92 be e8 55 1e ba 70 89 8f be
       0.09557578 -0.28599596 -0.00060400227 -0.28034544
000120 32 18 1c 3e c1 59 ea 3d 1d 6b 7b bd b9 38 54 3d
       0.15243605 0.114429004 -0.061381448 0.051811907
000130 27 ef 55 3e 37 68 92 3e 75 33 80 be af eb 24 be
       0.2089201 0.28595135 -0.2503926 -0.16105531
000140 e6 05 fa 3d 90 40 3d be ff 04 8f 3e 54 6b ae bc
       0.12208156 -0.1848166 0.279335 -0.021291412
000150 ec fe 77 be 82 da 1e 3e 77 09 02 be 8b 0a 41 3e
       -0.24218339 0.15513042 -0.12698923 0.18851678
000160 f4 cf c4 3d 3a ab 50 bc a4 04 09 3c d8 81 f1 bd
       0.096099764 -0.012736136 0.008362923 -0.11792344
000170 ea a1 b1 3b e6 df 94 3d 0e 87 b7 bd 5c 97 ff 3d
       0.005420913 0.07269268 -0.089613065 0.124800414
000180 ed b1 12 be 3d 35 61 be 6b ad 89 3e 63 88 85 3e
       -0.14325686 -0.21992965 0.2689012 0.26080617
000190 97 13 71 be 71 24 82 3c 44 7c 69 ba b7 d4 ba bd
       -0.23542629 0.015886517 -0.00089067616 -0.091226034
0001a0 b2 cf 5d 3e 47 ad 9c bc a0 ab 70 39 0e ff 99 be
       0.2166126 -0.019125594 0.00022952119 -0.30077404
0001b0 df 6f 1f 3e e4 b7 33 3e 48 f8 37 3e dc fa 16 3e
       0.15570019 0.17550617 0.17965806 0.14744133
0001c0 5c 9e 55 bd 8e b6 2d bd e4 46 6c be 67 10 64 be
       -0.052152976 -0.042410426 -0.23073918 -0.22271882
0001d0 5e 60 2f be e8 6c 82 bc dd 4f 0b be d6 e6 50 3e
       -0.17126605 -0.015921071 -0.13604684 0.20400557
0001e0 4a 75 b5 bd 6f dc 84 3e 07 c4 8a be a6 d3 8e 3e
       -0.08860262 0.25949427 -0.27102682 0.2789585
0001f0 16 76 81 bc 44 a4 d0 3d dd c9 01 be eb 93 a4 bd
       -0.015803378 0.10187581 -0.12674661 -0.080360256
000200 96 13 87 3e 80 2a e8 bb 0a d2 09 3e a5 87 1e be
       0.2638213 -0.0070851445 0.1345903 -0.15481432
000210 30 a6 b7 3d 48 f2 c0 3c 4c 6e ef bd a7 6f 8d 3d
       0.089672446 0.023553029 -0.11690959 0.069060616
000220 87 05 e0 bc 4b b4 8e be c9 ca 91 3e 8c d8 ff bd
       -0.027346386 -0.27871928 0.28475025 -0.12492475
000230 56 18 d8 3d 3c 96 e9 3d e0 c1 9a bc 9a 50 4b bd
       0.10551517 0.11405608 -0.018891275 -0.049637415
000240 e0 3c 2e 3d 81 26 6c be cc bb ca 3c 88 70 e8 3d
       0.042538524 -0.23061563 0.024747752 0.11349589
000250 30 e9 f8 bc 98 46 ef bd b7 54 18 be 53 c4 91 be
       -0.03038463 -0.116833866 -0.14876066 -0.28470096
000260 b2 cc 11 3e a1 9e 06 3e c9 df 73 3e dd 96 63 3e
       0.14238241 0.1314645 0.23815836 0.22225519
000270 0a ee 97 be 15 e1 d6 bd a7 73 65 3d 1d e4 7d be
       -0.29673797 -0.1049215 0.056018498 -0.2479405
000280 96 24 8e be 3c 52 a9 bd 3d b4 85 3e 39 4f 8c be
       -0.27762288 -0.08267638 0.26114073 -0.27404192
000290 17 3e 1a 3e 1e 8c 89 3e ae 1d 60 be 48 3e 65 3e
       0.15062748 0.26864713 -0.21886322 0.2238704
0002a0 b2 42 91 3e b3 eb e2 3d 3d 01 00 bd 34 18 e5 bb
       0.28371197 0.11080112 -0.03125118 -0.0069914106
0002b0 b7 ba 03 be 5f 96 ef 3c 43 3c 2b 3d 92 9d 39 3e
       -0.12864195 0.029246507 0.041805517 0.18126515
0002c0 01 6a 5e 3e 9a 7a 8b be 10 e9 83 be 9f 77 d8 3d
       0.21720125 -0.27241975 -0.2576375 0.10569691
0002d0 05 4a 30 3e c3 46 75 be 4c fd e4 3c 7c e0 3d 3c
       0.17215736 -0.23952775 0.027952813 0.011589166
0002e0 02 de 78 be 91 6b bf bd f0 af 72 3e 54 94 98 be
       -0.2430344 -0.093466885 0.23699927 -0.29800665
0002f0 03 ed 0e 3e ac a4 cf 3d b6 5f 57 be 53 3b 02 be
       0.139576 0.101388305 -0.21032605 -0.12717943
000300 9c a7 a5 bd 08 24 6b 3e 64 40 5f be 3b 67 33 be
       -0.080886096 0.22962964 -0.21801907 -0.17519848
000310 ad ff 7a be 34 62 b1 bd 0d c7 de 3b 15 a0 22 be
       -0.24511595 -0.08661309 0.006798631 -0.15881379
000320 55 72 24 bd df 1d 4b 3e 90 19 7a 3e 44 d2 81 bd
       -0.040148098 0.19835614 0.24423814 -0.06338933
000330 88 84 55 be 24 44 6f 3e 54 27 fa bd 25 36 c6 bd
       -0.20851338 0.23365837 -0.122145325 -0.09678296
000340 89 5e 81 3c 64 a4 63 3e b4 e6 8b be 28 c3 91 bd
       0.015792148 0.22230679 -0.2732445 -0.07117301
000350 8d 14 81 be 0f 28 1e 3e 5d 29 25 3e 99 27 1e be
       -0.25210992 0.15444969 0.1612906 -0.15444793
000360 27 31 81 3e 44 e0 b2 bd 24 28 e7 bc 91 ab 3a 3e
       0.25232813 -0.087341815 -0.028217383 0.1822951
000370 e4 66 c6 bd 5d be 8e be cb c6 0d 3e 12 f3 87 bd
       -0.096875936 -0.2787961 0.13845365 -0.06638159
000380 de 2e 0f be fc f2 6b be 20 74 be 3b fb 21 20 be
       -0.13982722 -0.2304191 0.005812183 -0.15637963
000390 79 10 d5 bd ef cc 37 3e 42 c1 38 be 06 23 1c 3e
       -0.104035325 0.1794927 -0.18042472 0.15247735
0003a0 e2 43 6c be 87 3e 96 be b6 31 78 3e 12 05 ac bd
       -0.2307277 -0.2934458 0.24237713 -0.083994046
0003b0 4d 52 8e 3e fa bc 3c be 20 24 6e 3e 50 a2 9f 3e
       0.27797166 -0.18431464 0.23255968 0.31178522
0003c0 b3 cb 0a be c7 f9 22 be f5 d8 87 bd 15 6b 3f 3e
       -0.13554268 -0.15915595 -0.06633178 0.18693192
0003d0 41 8e 94 3e 24 14 6b 3e 97 e9 14 3e 64 82 13 3d
       0.2901478 0.22956902 0.14542232 0.036013022
0003e0 5f 97 ee ba 63 bb a3 be 09 fc 77 bd bb 3d 18 3e
       -0.0018203071 -0.31978902 -0.060543094 0.14867298
0003f0 26 a7 2a be 92 7d 79 be c0 3b 67 3e 48 cc 71 be
       -0.16665325 -0.24364308 0.22581387 -0.23613083

linear1.bias f4 [256]
000000 e1 9f 48 3e 52 97 1c 3e e3 c7 8d be f5 d0 44 be
       0.19592239 0.15292099 -0.27691564 -0.19220336
000010 e4 ac a6 bc 55 a6 0f 3e 5f a4 b3 3d e8 4e 9a 3e
       -0.020346113 0.14028294 0.08771586 0.30138326
000020 aa fb 26 3b 97 16 67 3e b9 ef 1d be 6f 57 8a 3d
       0.0025479593 0.22567211 -0.15423478 0.06754958
000030 ed 21 4c be a4 c3 fa bd 4f e6 83 be 36 d2 c3 bb
       -0.19934817 -0.12244347 -0.2576165 -0.005975987
000040 9b 80 0f bd 25 79 bb 3d 52 58 14 be 69 7c 99 3d
       -0.035034757 0.09153966 -0.14486817 0.074944325
000050 f4 8a 82 bd c5 eb 2a be 72 56 bb 3d dd 56 94 bd
       -0.063741595 -0.16691501 0.091473475 -0.0724313
000060 16 13 de bd 38 57 85 3d 9b 98 e0 bd c9 9f 10 be
       -0.10843484 0.06510776 -0.10966607 -0.14123453
000070 b7 93 99 3e 4c 1a 8d 3e a8 2d 9c 3d aa 22 86 3e
       0.2999551 0.27559125 0.07625896 0.26198322
000080 3a 88 e0 3d 54 1d 63 be 43 33 0c 3e 42 5a b1 bd
       0.10963483 -0.22179157 0.1369143 -0.086597934
000090 cf 94 8d bd b0 4a bf 3a 28 2b 74 be 13 6e 10 be
       -0.069131486 0.0014594402 -0.23844588 -0.1410449
0000a0 4d 23 3d be bf 2f 77 be 31 93 85 be d1 7c 8e bb
       -0.18470497 -0.24139307 -0.2608886 -0.0043483754
0000b0 f5 68 25 3e 7d 76 2e be b7 25 37 3e 54 d7 91 3e
       0.16153319 -0.17037387 0.17885481 0.28484595
0000c0 55 81 13 bd 5e d3 b4 3d 22 6d 97 be dd 43 70 3e
       -0.036012013 0.088293776 -0.2957545 0.23463388
0000d0 c4 b5 d1 bc 96 5a 36 3e da 73 9d be 96 df 77 3e
       -0.025599368 0.17807993 -0.3075245 0.24206385
0000e0 ae 81 29 3e f7 34 28 3e b6 cf 65 be a9 57 7a 3e
       0.16553375 0.16426454 -0.22442517 0.24447502
0000f0 e6 52 09 bd 08 ea 1e bd 54 a4 2e be 33 4f a0 be
       -0.033526324 -0.03879741 -0.17054874 -0.31310424
000100 2c cf 5a be 10 98 a5 3e f8 d8 98 be 66 15 00 bc
       -0.21368092 0.32342577 -0.29853034 -0.007817602
000110 a4 e4 83 be 42 1e 99 be 54 47 8b be 5f e6 24 3e
       -0.25760376 -0.29905897 -0.27202857 0.16103505
000120 8a ed 82 bd cf d7 77 be c7 c3 5c 3d 30 d4 59 be
       -0.06392963 -0.24203418 0.053897645 -0.2127235
000130 13 b7 48 3e cf 8b d4 bc 55 05 c3 bd 81 58 ae bd
       0.19601087 -0.025945572 -0.095225014 -0.085129745
000140 26 05 52 3e 4a 87 86 3e 6d 0f a8 bc 4d 03 ab bc
       0.20509776 0.26275092 -0.020515168 -0.020875597
000150 3b 19 93 bd 9c 21 1f be f2 9d 86 3d 7d 9b 34 be
       -0.07182547 -0.15540165 0.065730944 -0.17637439
000160 ff f3 90 3e 41 b7 40 be 63 1d 51 3e 93 23 27 3e
       0.28311154 -0.18819906 0.20421366 0.16322164
000170 bc 3d 38 3e 07 35 72 be cd 53 51 be 74 b8 f7 bc
       0.179923 -0.23653041 -0.20442124 -0.030239321
000180 1c 63 c5 bd 14 44 8f 3e 4c 4c 76 be 70 51 5d be
       -0.09638044 0.27981627 -0.24052542 -0.21613097
000190 4e 9a d4 3d fc 91 96 3e 75 e3 5a be 39 3f d9 bd
       0.10380994 0.29408252 -0.2137583 -0.10607762
0001a0 23 22 4f 3e 1f 2f a3 bd b5 34 21 3d 7a 7f e5 3d
       0.20227866 -0.07967972 0.039356906 0.11205955
0001b0 7e 62 07 3e a8 80 34 be 3f 6d 81 3e 1e f8 8b 3e
       0.13221166 -0.17627203 0.2527866 0.27337736
0001c0 2e 4a 11 3e 81 a3 62 3e 31 a6 76 be 68 73 97 3e
       0.14188454 0.22132684 -0.24086834 0.29580235
0001d0 75 16 48 3d 6f f8 69 be 61 68 a1 bd 0c f3 88 3e
       0.04884954 -0.22848676 -0.07881237 0.2674793
0001e0 28 92 7a 3d a1 20 08 3e 47 8d 8d 3d b8 2b 45 3e
       0.06117454 0.13293697 0.06911712 0.19254959
0001f0 d6 c6 2d 3e d8 97 93 be 00 7d 81 3e f2 bd a9 be
       0.16970381 -0.28826785 0.2529068 -0.3315273
000200 46 f0 4a be bf f8 8a 3e 28 dd 90 be 77 08 69 3d
       -0.1981822 0.27142903 -0.2829373 0.05689284
000210 84 90 4f bd 0f d6 84 3e ba 28 0e be 94 31 4a be
       -0.05067493 0.25944564 -0.13882723 -0.19745475
000220 c9 25 89 3e 2c 24 42 3e b6 b5 7b 3e d3 a7 bd bd
       0.2678664 0.18959111 0.24581036 -0.092605256
000230 16 ee 7b be db 08 95 3e 17 eb a3 bd c3 65 c2 bd
       -0.24602541 0.2910832 -0.08003824 -0.09492066
000240 4b 54 b1 3d ea b9 a4 bc d6 65 1e 3e 7a b9 91 bc
       0.08658656 -0.020108182 0.15468535 -0.017788637
000250 d3 76 96 3e 64 dc 31 3e c1 df 7b bd cc 51 48 be
       0.2938753 0.17369229 -0.061492685 -0.19562453
000260 5d 2c 24 be 31 05 81 be 01 d0 cd 3d ad 5f 94 bd
       -0.16032548 -0.25199273 0.10049439 -0.07244811
000270 5b 1f bc 3d ba 6f e5 bd 31 d0 8a 3d bd e4 c1 ba
       0.09185668 -0.11202951 0.067779906 -0.0014792901
000280 28 12 95 3d 97 33 45 be a7 71 96 be b2 37 96 3e
       0.07278854 -0.19257961 -0.29383585 0.29339367
000290 9e b6 d9 3d 11 6b a0 bd 36 d7 0b be da 18 74 3d
       0.106305346 -0.07832921 -0.13656315 0.059594013
0002a0 40 2d b9 bd 0a a3 d2 3b 35 90 e2 bc 9a 2a 34 3d
       -0.09041834 0.006428127 -0.027656654 0.04398594
0002b0 76 3d 92 be 74 b4 81 be 22 fc 9b be be 86 a9 3d
       -0.28562516 -0.25332987 -0.304658 0.08277653
0002c0 ac a6 6b be 75 2e a1 3d 8c 44 9b 3e 72 02 7c 3d
       -0.23012799 0.07870189 0.30325735 0.06152577
0002d0 d7 c5 30 3c 2e 54 10 3e 7b 80 22 be 37 f8 ce bd
       0.010789356 0.14094612 -0.15869324 -0.10105937
0002e0 76 a7 da bb b1 0d 8c 3d 59 c0 86 3e 35 78 30 be
       -0.006672795 0.06838549 0.26318625 -0.17233355
0002f0 88 bb a0 3c 17 a5 16 3e 73 eb c9 bd 55 6f c4 3d
       0.019620672 0.14711414 -0.098593615 0.095915474
000300 8f a3 87 3d f9 23 0a be 4a 27 af 3d b7 bf ea bd
       0.06622993 -0.13490285 0.08552416 -0.11462348
000310 f6 08 18 3e 6e dc 0b bb 38 19 8d 3e 8a e8 e7 bd
       0.14847168 -0.0021341103 0.27558303 -0.1132365
000320 88 fc 56 3e 03 8f eb bc b1 5b 29 be a4 4a 55 be
       0.2099477 -0.028754717 -0.16538884 -0.20829254
000330 f6 e7 86 bd 54 d3 76 be fe 3b a4 be 79 a9 b7 bd
       -0.06587212 -0.24104053 -0.3207702 -0.08967871
000340 db c0 18 3d 36 ea 7f 3e 17 dc 7f 3e 9f 9e 61 be
       0.037293296 0.24991688 0.24986301 -0.22033165
000350 e1 7b 28 3e fa aa 3e be da 1a 8c 3e 93 f3 47 3c
       0.16453506 -0.1861991 0.27364236 0.012204069
000360 16 d3 c6 3d 70 9b 67 be c4 2c da bc 96 42 0d 3e
       0.0970823 -0.22617888 -0.026632674 0.13794932
000370 8d 25 68 bc db f4 3c 3e 35 7b 90 bd 1b 51 8b be
       -0.014169109 0.1845278 -0.0705475 -0.27210316
000380 e2 c1 45 3e e5 b4 4a 3d 66 ec 5e 3e f1 b9 8b be
       0.19312242 0.04948892 0.21769866 -0.272903
000390 e5 84 48 3e 77 5c 8a be 71 a2 56 3e 3e 58 ec bc
       0.19581945 -0.2702367 0.20960404 -0.02885067
0003a0 c2 7a 37 be 69 4e 52 bd 6f a7 71 3e 25 84 76 be
       -0.17917922 -0.05134431 0.23599027 -0.24073847
0003b0 e9 48 10 be 4d f5 58 be 2a 46 d8 3d e4 f3 4a 3e
       -0.14090313 -0.21187325 0.10560258 0.198196
0003c0 00 5a 51 bd 40 79 ad 3d 31 aa 49 bd 34 e4 2f be
       -0.05111122 0.08470392 -0.049234573 -0.17176896
0003d0 82 e2 8c be dd 6b 35 3d f0 a9 e0 bd e2 1c fa 3d
       -0.27516562 0.04429232 -0.10969913 0.1221254
0003e0 8f 36 94 be b0 af 10 bd 4b b6 7b be 17 ab f1 3c
       -0.28947875 -0.0353238 -0.24581258 0.029500527
0003f0 8d e1 51 be e0 f6 7c be 22 ec f3 3d 3d bb fb 3d
       -0.20496197 -0.2470355 0.11910273 0.12291572

linear2.weight f4 [3, 256]
000000 a6 b4 81 bd 4f 25 a2 b9 a5 1c 10 bb 2c 4b e0 3c
       -0.06333284 -0.00030926845 -0.002198973 0.027379595
000010 9e c6 ff bb 87 d5 40 ba f4 6f d8 3b 42 0b 72 bd
       -0.0078056594 -0.0007356037 0.0066051427 -0.059092768
000020 d0 1d 3c 3d 09 0f f2 3c 80 20 b3 bb 72 be a1 bd
       0.04592687 0.029548185 -0.005466521 -0.07897653
000030 ce dd ec bc 1c 4f b8 bc 2b 6d c9 3b 69 30 83 bd
       -0.028914358 -0.02249866 0.006147047 -0.06405718
000040 12 07 4e bc 88 c8 2d bd f3 70 a6 3b 77 e9 03 3d
       -0.012574928 -0.04242757 0.0050793826 0.03220507
000050 1a 40 9e 3b 06 3c 2b 3d a1 21 4d bd cd 28 c9 bc
       0.004829419 0.04180529 -0.0500809 -0.024555588
000060 11 2c f8 3c e4 e6 60 bd 3f 0a 1a 3b 20 2f a9 3c
       0.03029445 -0.054907694 0.0023504642 0.020652354
000070 4e f7 46 bd b6 d0 67 3c ba a6 51 bd cc 98 11 3d
       -0.048575692 0.014148882 -0.051184393 0.03554611
000080 1e 99 4d 3d fd 69 c7 3b 92 a1 17 bd 0c 58 2a 3a
       0.050194852 0.006085633 -0.03701932 0.00064981054
000090 21 dc 76 bc cf 1f 08 bd 34 a5 bf 3b 43 e8 09 bd
       -0.015067131 -0.03323346 0.005848551 -0.033668768
0000a0 f7 4c c3 3c f8 76 00 bb 40 4a 1a bc f3 62 c9 3b
       0.02384041 -0.001960216 -0.009417117 0.006145829
0000b0 91 86 4c 3d a8 67 1b bd 90 5d df bc 0f c5 ae bd
       0.04993302 -0.03794065 -0.027266294 -0.0853368
0000c0 0f 5f 2c 3d 56 5e 0a bd 4f d1 f4 bc 36 7f 89 bd
       0.042082842 -0.033781372 -0.029884962 -0.06713717
0000d0 bb c3 77 bd b6 29 1f 3d 30 f7 bf 3b cf ef 23 bd
       -0.060489397 0.038858138 0.0058583245 -0.04002362
0000e0 97 cb 67 bd 16 7a 70 bd db 9e 9f bc 54 42 99 3c
       -0.056590643 -0.05871018 -0.019484928 0.018708386
0000f0 09 9c 39 bb c2 5f 76 3d ad 1d ab 3c 8d 85 df bc
       -0.0028321764 0.060149916 0.020888174 -0.027285362
000100 50 0b f6 bb c3 e8 76 bd 60 51 44 3d 1a 98 e0 3c
       -0.007508673 -0.060280573 0.047929168 0.027416278
000110 1a 5a 40 3d 9e 47 61 3c 46 00 3d 3d 50 67 16 bd
       0.046960928 0.013749985 0.04614284 -0.03671962
000120 67 87 60 bd 43 f1 9d bb f9 d1 2d bc f8 6f fd bc
       -0.05481663 -0.0048200204 -0.010609143 -0.03093718
000130 a0 cd dc bb 60 af 24 bb ac f6 2d 3d 53 1f 99 bc
       -0.0067383796 -0.0025128946 0.042471573 -0.018691694
000140 34 95 62 3b 34 08 c6 bb 96 b1 a6 bb 3c 61 a7 bb
       0.0034573795 -0.0060434584 -0.005087088 -0.005108027
000150 ce 60 74 bd ce b4 c4 3b f7 c9 5e bb 00 ac d6 3c
       -0.059662633 0.006002999 -0.0033994892 0.026205063
000160 a0 6d ae bb ac e4 f8 bc f4 2f 3d bd 5c 9b d1 3c
       -0.005323127 -0.030382477 -0.04618831 0.025586776
000170 60 e5 85 bd 70 53 43 3d eb be 21 bd ba 77 08 bd
       -0.065378904 0.047686994 -0.039488714 -0.033317305
000180 76 e3 04 3d 73 bb 3d 3d 54 9f 2d bd 9a df 51 bd
       0.032443486 0.046321344 -0.042388275 -0.051238634
000190 b8 53 49 3d 53 2c 0c bd 95 82 5b 3b 84 46 f8 bc
       0.049152106 -0.03422196 0.003349458 -0.030307062
0001a0 d1 fc 82 bd 60 00 ea 3c bd 9b 87 3c 28 56 04 3d
       -0.06395877 0.028564632 0.016553754 0.032308728
0001b0 01 08 07 bd 05 7e 9a bd 40 89 99 3d 52 75 85 bd
       -0.032966617 -0.075435676 0.074968815 -0.06516518
0001c0 c6 9b 44 3c ef 82 f9 bc d6 7e 1d 3c ad 1f 2c bd
       0.01200003 -0.030457942 0.00961276 -0.042022396
0001d0 08 3c 21 bb 00 c5 4c 3d 1b e1 b2 3d 6d 68 03 3d
       -0.0024602432 0.04999256 0.08734342 0.03208201
0001e0 ec 12 28 bd 75 18 04 3d b3 4f b8 3c f2 57 2d bd
       -0.04103367 0.032249887 0.022498941 -0.0423202
0001f0 cd 63 6d 3c b5 13 a4 3d ef fb 3c 3d 5a 04 97 3b
       0.014489126 0.08011571 0.0461387 0.004608673
000200 7b 1d 86 3d bc 9f 05 3c d8 9c 2f 3d f4 c7 1a bd
       0.06548592 0.008155759 0.042874187 -0.037788346
000210 78 ea 18 bd f1 32 04 bb de 07 63 3d 75 35 89 3c
       -0.03733298 -0.0020171965 0.055427425 0.016749123
000220 66 bf d5 3c 1d 5a a6 bc 99 9c 58 3b c3 b2 c5 bc
       0.026092242 -0.020306641 0.0033052324 -0.024133092
000230 03 50 d8 bc 20 36 99 3d 61 1b 0a be 41 64 29 3d
       -0.02640534 0.07481027 -0.13487007 0.041355375
000240 26 3e 9f bd 01 3b cc 3b 26 40 80 bc de 28 0f bd
       -0.07775526 0.0062326198 -0.015655588 -0.034951083
000250 d7 42 23 3d 30 ec 59 bc 0a 2b 85 3c 3b ba 8f 3c
       0.039858665 -0.01330094 0.016255874 0.017544856
000260 1e 7a ce bc 38 a6 34 3c 12 a9 66 bc 13 96 81 bc
       -0.025204714 0.011025958 -0.014078395 -0.015818631
000270 6e c8 b3 bc 8e d7 c9 bb 4a 92 40 bd ee 76 f6 bc
       -0.021946158 -0.0061597293 -0.047014512 -0.030086007
000280 97 a1 5e 3c 60 f1 3c 3d 92 bb c9 3c 43 e1 53 bc
       0.013588331 0.04612863 0.024625573 -0.012932125
000290 1d 8e 26 3d 73 cb a2 3d 87 52 eb bb 6d 6d 2b 3d
       0.040662874 0.07948961 -0.007181469 0.041852403
0002a0 98 05 5b bc 32 7f 10 3c 9f 3d 41 bd 93 26 bd 3d
       -0.013368033 0.008819388 -0.047177907 0.09235873
0002b0 a0 d2 e9 3c 72 cb 54 bb 21 56 1c bc ca 6e 03 3d
       0.028542817 -0.0032469896 -0.009542019 0.03208808
0002c0 37 a8 67 bb 32 02 3a 3d 84 ec d5 bc 2e c2 8d 3c
       -0.0035348067 0.04541225 -0.026113756 0.017304506
0002d0 b7 9f a1 3c d1 b8 63 3d 09 53 e1 bb 92 76 c9 3c
       0.019729478 0.055596177 -0.0068763536 0.024592672
0002e0 f6 87 4b bd 5f d8 28 3d e6 d6 12 3d ec 2c 50 3d
       -0.04969021 0.041221973 0.035849474 0.05082409
0002f0 45 e9 a1 3c bf 8f 5b 3d 28 81 b9 3c ef 7f 85 3d
       0.019764552 0.053603884 0.022644594 0.06518542
000300 59 e7 65 3d d8 1d 56 3c ce f6 95 3a ae 2d 0e bd
       0.056128833 0.013068639 0.0011441351 -0.034711532
000310 7e b9 f0 3c d0 f2 ab bb 87 ee 4c bd 2d d4 8b 3d
       0.029385325 -0.0052474514 -0.050032165 0.06827579
000320 53 16 7c bd 76 db 8b bd bd a9 d9 bb c3 87 5d 3a
       -0.061544728 -0.06828968 -0.006642549 0.0008450711
000330 ef 59 b4 bc 00 9d 89 3c d9 20 bb bc e2 3a 3b bc
       -0.02201554 0.016798496 -0.022842811 -0.011427613
000340 be 96 7b bc 99 63 0f bd 75 54 52 3d 6e 84 49 bd
       -0.015355764 -0.035007093 0.051350076 -0.04919856
000350 dc d6 a2 bd c1 94 17 bd d1 78 38 bd 34 e4 d0 ba
       -0.079511374 -0.037007097 -0.045037095 -0.001593715
000360 8b 05 46 3c d4 2f 6f 3c a5 81 02 3d 1f 23 5d bd
       0.0120862825 0.014598805 0.03186192 -0.053988572
000370 ec 10 d1 3b e9 12 7d bc bc 53 4f bd ff 9a 78 bd
       0.006380191 -0.015446403 -0.050616965 -0.06069469
000380 9e cc f1 3c 8b 17 13 bd 14 50 21 bd 90 44 99 3c
       0.029516514 -0.035911124 -0.03938301 0.018709451
000390 f0 e7 a5 3b d8 66 2f 3c 20 48 70 bd fc df 38 3d
       0.0050630495 0.010705672 -0.058662534 0.045135483
0003a0 eb 33 e4 3b 3e cf b4 bc 4b 7c f0 3c d8 92 04 3d
       0.006964197 -0.022071477 0.029356143 0.032366604
0003b0 8d d5 d1 3d 52 95 e9 bc e3 ff 5f 3d 35 07 f6 bc
       0.1024581 -0.028513584 0.054687392 -0.030032733
0003c0 84 11 dc bc ac ba ce bc f1 e2 1b bd c1 a8 34 bd
       -0.02686382 -0.025235496 -0.038058225 -0.04410625
0003d0 e5 0b a2 bc 86 6b 35 bd c8 de 3a bd 02 57 dc ba
       -0.019781062 -0.044291995 -0.045622617 -0.0016810598
0003e0 76 5f 1b 3d e8 1c 99 3d 07 35 48 3d df f1 8e bc
       0.037932836 0.074762166 0.048878696 -0.017449317
0003f0 7f 38 34 bb 6d cb 8d 38 4a 45 83 bd b6 07 8a bd
       -0.0027499495 6.761295e-05 -0.064097 -0.06739752

linear2.bias f4 [3]
000000 e0 05 b7 bb 5f 8d 2b bd bf ef a6 3c
       -0.005585417 -0.04188287 0.020377992
