Rl_Project1/snakegame/model/model.pth (torch, 17103 bytes, 4 tensors)

linear1.weight f4 [256, 11]
000000 f2 33 a1 3d 6a 07 87 be da 26 c8 bd cf 40 38 bd
       0.07871236 -0.26372844 -0.09773035 -0.04498368
000010 39 77 6d be 01 de 79 bf 24 f9 27 3f 60 ab 63 bf
       -0.23190011 -0.97604376 0.65614533 -0.8893337
000020 86 7b 1b bf 96 ae a3 bf e3 99 90 3e aa 5b 1a 3e
       -0.60735357 -1.2787654 0.28242406 0.1507403
000030 a8 00 a7 be 3b 22 30 3e 6e ce e4 3d f4 42 da 3d
       -0.32617688 0.17200558 0.11172186 0.106573015
000040 0d 4e a9 3d d2 8a 95 be 3c 7d c2 be 0d 32 b4 bd
       0.0826684 -0.29207474 -0.3798617 -0.08798609
000050 19 49 43 be c4 c6 c7 be aa 53 b4 3d 87 45 f0 bd
       -0.19070853 -0.39018834 0.0880502 -0.11732011
000060 d6 91 08 3e 8b 5f 04 be f0 92 13 be 0d 9a bc be
       0.13336882 -0.12927072 -0.14411521 -0.3683628
000070 50 d7 56 be 55 9c a8 3d 48 3c 15 3e d6 8f 98 3d
       -0.20980573 0.08232943 0.14573777 0.074493095
000080 44 7d 03 bd ae f7 d7 be 7a 1c 99 be 54 c7 ae bd
       -0.032101884 -0.42181152 -0.29904538 -0.085341126
000090 fe 70 ad be 6b 5e b3 3d 88 8a 76 be 9e 96 6f be
       -0.3387527 0.08758243 -0.24076283 -0.233973
0000a0 e9 eb a8 3d 44 1e 9a be da 3f db be 10 6f 71 be
       0.08248121 -0.30101216 -0.42822152 -0.23577523
0000b0 40 61 8f 3e 01 40 8e 3d c6 6e c4 3d 49 18 29 3d
       0.28003883 0.069458015 0.09591441 0.041282926
0000c0 16 59 59 be 70 2e c1 bc 23 d9 b0 bd 6b 98 b3 3e
       -0.2122539 -0.023581713 -0.086351655 0.35077223
0000d0 67 7b e8 3e 1e f6 04 3f b4 09 00 3f 6d 1c c8 be
       0.4540665 0.51938045 0.50014806 -0.39084187
0000e0 0d 50 4b 3d 64 91 cc 3e c9 7d df 3d 53 1a 87 be
       0.04963689 0.39954674 0.109126635 -0.2638727
0000f0 f8 4f a2 bd 03 93 03 3e 43 ec 81 bf b6 11 5d bf
       -0.07925409 0.1284905 -1.0150226 -0.8635515
000100 49 24 1b bb 22 2e 71 3e d7 9f 60 be b9 ba 6f be
       -0.002367275 0.23552755 -0.21935974 -0.23411073
000110 1c fd 77 be 34 e7 88 be 8b f4 29 be f7 83 a0 bd
       -0.24217647 -0.26738894 -0.16597192 -0.0783767
000120 7c 4e ce bd 5e 21 73 3d e8 06 1b bd 90 49 f8 3d
       -0.100735635 0.059357993 -0.037848383 0.12123406
000130 a0 ee 8c bc 9c 9c 23 3f df 43 a1 be c0 2d 03 bd
       -0.017203629 0.6391084 -0.31497094 -0.032026052
000140 c7 e3 02 3e 1a 9d fa be 50 2c e2 3d c0 a8 ef be
       0.12782203 -0.48947984 0.11043608 -0.46808434
000150 56 af a0 ba 38 d1 13 bf b6 01 af bd 6f 65 1f bf
       -0.0012259285 -0.5774112 -0.08545248 -0.6226415
000160 ab 41 3e 3f 50 3a b5 bd 6d 1a df be 00 f6 24 be
       0.7431895 -0.08849013 -0.4357485 -0.16109467
000170 f2 1b b9 bd 87 9b 14 bf 5c f7 70 3e 19 ba ce be
       -0.09038533 -0.58049816 0.2353186 -0.40376356
000180 4a ff ef bd 51 c3 f1 be 3a 77 3b 3e 0e fa 32 bd
       -0.117186144 -0.47219327 0.183072 -0.043695502
000190 71 2c b6 3d 5e 91 93 bd a4 4e 2e 3e a7 f3 51 be
       0.08895195 -0.07205461 0.17022187 -0.20503102
0001a0 68 02 50 3e 04 ef bd be a7 99 98 3e 09 53 2f 3f
       0.20313418 -0.37096417 0.29804727 0.68486077
0001b0 46 a7 b3 3e de 25 45 3f 81 04 81 bd 84 9a ef bc
       0.35088557 0.77010906 -0.06299687 -0.029248483
0001c0 1d 0e 8e be 68 34 82 be ff 54 64 bd 22 ba 25 bd
       -0.27745143 -0.25430608 -0.05574512 -0.040460713
0001d0 c2 d4 62 be e8 5c 00 3e 50 42 57 3e ef 00 d9 3d
       -0.22151473 0.12535441 0.2102139 0.10595881
0001e0 86 36 fa bd 00 e3 c0 3d 45 a7 e1 be f3 67 e1 bd
       -0.12217431 0.09418297 -0.4407293 -0.11006155
0001f0 bc e2 d4 3e 59 cc e1 be 10 69 8d be 20 f7 74 be
       0.41579235 -0.44101217 -0.2761922 -0.23922396
000200 29 9c 2c bf f3 6f 07 3e d8 4e 06 bf ab a6 07 bf
       -0.6742578 0.13226299 -0.52464056 -0.5298869
000210 7c 00 1f 3e 75 96 a2 3d 85 d4 5f bf 31 1c fe 3e
       0.15527529 0.07938854 -0.87433654 0.49630883
000220 ad e0 77 bf 49 43 b3 bd 78 be 45 bf 80 e1 fc 3e
       -0.96827203 -0.08753068 -0.7724376 0.49390793
000230 d7 06 70 bf 54 6f 63 bf 8d 17 b3 be d7 37 aa be
       -0.93760437 -0.8884175 -0.34978905 -0.33245727
000240 b1 4c 0a be 18 4e 7b 3e a2 96 a3 be 1f 10 b5 bd
       -0.13505818 0.24541509 -0.3195086 -0.088409655
000250 1c 77 b6 3e 55 1a 68 3e 35 05 65 3e e7 aa 29 be
       0.35637748 0.22666295 0.22365268 -0.165691
000260 c6 32 10 bf d9 87 05 bf 77 a6 82 be bf 92 77 3e
       -0.56327474 -0.5216041 -0.25517628 0.24177073
000270 22 78 9c 3e b5 35 fd bd 2b 52 8b be a7 73 a2 3d
       0.30560404 -0.123637594 -0.27211127 0.07932215
000280 77 ab da 3c 23 11 1b 3d 50 47 33 be 72 d3 8f be
       0.026693089 0.03785814 -0.17507672 -0.28091007
000290 ea 40 81 bd 98 8e 93 3d 60 b3 de bc c4 53 d1 bc
       -0.063112095 0.07204932 -0.027185142 -0.025552638
0002a0 0a 35 4e 3d 40 d4 06 bf 14 45 c3 bc f0 9b 30 bd
       0.05034355 -0.5266762 -0.02383665 -0.043117464
0002b0 1f ff b8 be d7 df 53 bf 1d e4 d0 be 07 cd 5c be
       -0.36132142 -0.8276343 -0.40799037 -0.21562587
0002c0 d7 93 dd 3e 06 71 a8 be c9 93 a4 bd 6c 41 29 bf
       0.43276855 -0.3289873 -0.08036 -0.6611545
0002d0 df de fd 3e 90 c6 15 bf 5d eb d1 be 5c ec 23 bf
       0.495841 -0.5850611 -0.4099988 -0.6403253
0002e0 27 3a f8 3e 23 69 44 be 8b 8f d1 be 12 b0 37 3d
       0.48481867 -0.19180731 -0.40929827 0.044845648
0002f0 53 35 a9 be 30 7d da bd 81 4e 8d 3e 72 75 2c bf
       -0.33048496 -0.10668409 0.27598956 -0.6736671
000300 e4 29 9e be 44 14 4e bd 49 72 68 3e de 7c 9f be
       -0.30891335 -0.050312296 0.22699846 -0.31149954
000310 47 97 32 3e 81 c8 27 bf f7 2f 80 3e 4d 18 f3 3d
       0.1744052 -0.6554032 0.25036594 0.118698694
000320 31 a9 a7 bd 49 fe 6e be d9 5d ad be 53 3c 7c be
       -0.081865676 -0.2333919 -0.33860663 -0.24632387
000330 72 29 a4 be 3a 4f 02 3f d1 eb 14 3f 62 37 0b 3f
       -0.3206287 0.5090214 0.5817233 0.5438138
000340 18 d0 00 3f 08 c5 c0 3d 84 a2 a3 bc 1f e2 5a 3d
       0.50317526 0.09412581 -0.019974954 0.053438302
000350 41 13 29 bf ac c6 2d 3d 3a 22 c4 be 21 4b 98 be
       -0.66045004 0.042425796 -0.38307363 -0.2974482
000360 60 3b 8f 3e ca c9 06 bf e1 71 88 be 58 3f 7b be
       0.27974987 -0.52651656 -0.26649383 -0.24535882
000370 24 fb 6f 3d 3e a8 38 be c3 0f 77 3a 9f 83 88 3d
       0.058589116 -0.1803293 0.0009424651 0.0666573
000380 82 ff 07 3e d5 77 e5 bc 20 f0 13 be aa a9 d5 bd
       0.13281062 -0.028011242 -0.14447069 -0.104327515
000390 a3 be 8e be 42 c6 3c be 58 81 3f be f9 75 8d be
       -0.2787982 -0.18435004 -0.18701684 -0.27629068
0003a0 4c 8a 79 be dd 82 98 bc f8 dc 9a bd 77 77 a8 be
       -0.24369162 -0.018617088 -0.07561678 -0.32903644
0003b0 de 6d 75 bd 8a 83 a5 bd e2 e3 44 3d 18 d6 01 3e
       -0.05991923 -0.0808173 0.04806889 0.12679327
0003c0 4f 9d 3b bd 9e 8a 07 bc de 6e 6b be 17 de 51 be
       -0.045804318 -0.008272795 -0.22991511 -0.20494877
0003d0 96 b4 cf 3d 0e e3 a0 bd 82 8d 30 be d0 14 11 be
       0.10141866 -0.07855807 -0.17241481 -0.14168096
0003e0 bd 11 39 be b2 d1 82 bd 6d a1 41 bd 6a c3 d6 3d
       -0.18073173 -0.063876525 -0.04727309 0.10486491
0003f0 53 05 42 3e 6e 22 48 bd f1 67 69 be 5e 33 e8 bc
       0.18947344 -0.04886096 -0.22793557 -0.028344806

linear1.bias f4 [256]
000000 11 9c f9 3e 2b 34 b2 be a1 dd c3 be ca 31 f1 3d
       0.48751882 -0.34805426 -0.38255027 0.11777075
000010 31 1d cc be bc 88 42 3e 84 fe f7 bd c1 e2 4a be
       -0.3986602 0.18997473 -0.12109092 -0.19813062
000020 de 73 ef be cd 00 e5 be c3 24 b9 be 9d d1 96 bd
       -0.46768087 -0.44727173 -0.3616086 -0.07364199
000030 81 b0 49 3e cb 94 25 be 8a ae d7 be a8 fc 94 3d
       0.19696237 -0.16170041 -0.4212535 0.07274753
000040 14 18 6a be 99 09 bb bc 2d df 7f be 83 1a f1 bd
       -0.22860748 -0.022831725 -0.24987479 -0.11772635
000050 93 04 14 be 29 31 16 be 18 21 b8 be da 16 7e be
       -0.1445487 -0.1466719 -0.3596275 -0.24813405
000060 c4 a1 64 be ff 54 66 be 7e da 26 be 84 f3 c1 be
       -0.22327334 -0.22493361 -0.16294286 -0.378811
000070 cf 9b b4 be 10 e3 b5 be e5 52 d4 be db 50 86 bc
       -0.35275123 -0.35524797 -0.41469494 -0.016395977
000080 f8 17 eb be f6 9d f6 bd 00 f4 b2 bd a5 02 89 bc
       -0.45916724 -0.120418474 -0.087379456 -0.016724894
000090 5a 9a 34 bc c4 3d 7e 3e cb 23 8b 3c cc ad 1f 3e
       -0.011023128 0.24828249 0.01698484 0.15593642
0000a0 98 d0 ff bd 27 06 df be df 7a 32 be c6 1d 52 ba
       -0.12490958 -0.4355938 -0.17429684 -0.0008015301
0000b0 a2 7b b6 3d 46 6e bf be 12 71 f6 be 7d 8e bb be
       0.089103 -0.3738882 -0.4813314 -0.36632147
0000c0 7a 89 f0 be fd 60 0e be 74 46 94 be 5b 34 0d 3e
       -0.46979886 -0.13904186 -0.2896 0.13789503
0000d0 df 84 30 be d9 ab ba be ad 43 1d 3d 26 d4 d9 bd
       -0.17238186 -0.36459234 0.03839462 -0.10636167
0000e0 8c 80 d1 be da 84 96 3e d0 53 01 3f ef a7 c2 be
       -0.40918386 0.29398233 0.5051851 -0.38018748
0000f0 b7 93 c5 be cb b2 bc be be dd 65 bd 89 94 2a be
       -0.3858926 -0.36855158 -0.056119673 -0.16658224
000100 32 90 74 be c2 bb 2b 3e 7d 33 09 bc 1c 37 d2 be
       -0.23883131 0.16770843 -0.008374092 -0.4105767
000110 94 90 41 be 79 f8 b4 be 94 c6 3c 3e b3 21 b4 be
       -0.18902808 -0.3534582 0.18435127 -0.3518196
000120 6d 21 0a 3e 77 1b f5 3e b4 b3 70 bd 0f 65 e2 be
       0.13489313 0.47872517 -0.05876513 -0.44217727
000130 2c ea 0c 3e 10 24 d3 3e 50 77 92 be 76 ee 1e be
       0.13761204 0.4123845 -0.28606653 -0.15520653
000140 9c 01 d0 be bd e1 b3 be 1f 06 ce bb 65 df ac be
       -0.40626228 -0.35133162 -0.006287351 -0.33764187
000150 2c 54 07 bf 92 e9 9c 3e 7f c2 88 3d 84 20 3c 3c
       -0.5286281 0.3064695 0.06677722 0.011482362
000160 55 c0 0c bf 21 10 10 3e ce 3c 19 3d e4 9f a2 3e
       -0.54980975 0.14068653 0.037411503 0.31762612
000170 e6 d9 51 3e 4e db 25 be 11 78 26 be 2a ae d3 be
       0.20493278 -0.1619694 -0.16256739 -0.41343814
000180 5f 0c 7a be e9 a5 4a bd 1c 24 9b be ad 6d 5b 3e
       -0.24418782 -0.04947463 -0.30300987 0.21428557
000190 de 45 38 be 2f 62 8b be df c5 d3 be 9d 9c 35 bc
       -0.17995402 -0.27223346 -0.413619 -0.011084703
0001a0 ec 94 b0 be 8b 4b fa be f7 a3 ad be a1 f6 dd be
       -0.34488618 -0.4888576 -0.33914158 -0.43352225
0001b0 d2 a2 82 be 88 58 8b be 59 8d 96 be 37 ca 52 be
       -0.25514847 -0.2721598 -0.29404715 -0.20584951
0001c0 a3 00 8b be 8b 94 7a 3d 4f 86 bc be 0b f5 26 be
       -0.27148923 0.061176818 -0.3682122 -0.16304414
0001d0 3e 43 42 be 1a 84 f6 3e e4 80 4d be 91 75 93 be
       -0.18970963 0.4814766 -0.20068699 -0.28800634
0001e0 21 2c ef be 98 94 09 3e 1e af 47 3e e3 3c 8f be
       -0.46713355 0.1343559 0.19500396 -0.2797614
0001f0 6c 03 d9 be ce 38 e1 bb 43 cf 5c 3c e5 45 85 be
       -0.42385423 -0.0068732267 0.013477149 -0.26029888
000200 92 6d a6 3d b3 f2 12 bf fb 3c b4 3d 3f 10 50 bd
       0.08126368 -0.5740158 0.088006936 -0.050796743
000210 f2 58 df be 32 0d e0 be d8 fc 5f be 89 78 3f be
       -0.43622547 -0.43760067 -0.21873796 -0.18698324
000220 b4 24 62 be ea ef 0f be 27 3d b6 bd 39 13 ed be
       -0.22084314 -0.14056364 -0.08898383 -0.46303728
000230 35 5a 4c 3d 07 1f 35 3e a2 53 67 bd df 0b b0 be
       0.049890716 0.17687617 -0.056476243 -0.34384057
000240 66 be fb bc b3 86 52 bd d9 f7 c0 bd 1a cf d2 be
       -0.030730437 -0.05139799 -0.09422273 -0.4117363
000250 c9 5b 9e be d9 4f c7 3e 8a 6c 5d 3e 0a c3 96 be
       -0.30929402 0.38928106 0.21623436 -0.29445678
000260 37 72 ff be bb 22 e6 be 68 69 01 bf f3 2b 8a be
       -0.49891827 -0.44948372 -0.5055146 -0.26986656
000270 2f 7d 33 bd 04 08 d4 be c1 07 cf bd d6 71 e3 3d
       -0.043820556 -0.41412365 -0.10108901 0.11105697
000280 23 51 2b be 61 5d d3 be 65 b8 e8 be fa fb 95 3e
       -0.1673017 -0.4128218 -0.45453182 0.29293805
000290 9f f4 78 be 21 25 5f be 58 5b 9f be 40 28 6d be
       -0.24312066 -0.21791507 -0.31124377 -0.23159885
0002a0 12 66 2c be 21 59 ed bd 81 09 d3 bd f9 38 62 3e
       -0.16835812 -0.115892656 -0.10304547 0.22092046
0002b0 c5 16 9e be 8b bc 96 be a1 f6 f5 bd 4c df 31 be
       -0.30876747 -0.29440722 -0.12009931 -0.17370337
0002c0 3c 63 d4 be 37 ab 43 bd 1c 35 6a be b3 78 aa be
       -0.4148196 -0.047770705 -0.22871822 -0.3329521
0002d0 3f cc 19 be 9f 29 81 be 83 4d 35 be 7c 08 1f be
       -0.1501932 -0.25227067 -0.1770535 -0.1553058
0002e0 51 af 61 be c5 5a a8 be 69 35 0b 3f fe 06 aa be
       -0.22039534 -0.32881752 0.5437837 -0.3320846
0002f0 2e 59 11 bf 1e 0f 56 3c b7 de b3 3c 5d c7 5d be
       -0.567767 0.013065128 0.021956785 -0.21658082
000300 ea cc 85 bc fa 0a e6 be 77 3a c5 be b7 41 6a be
       -0.016333062 -0.4493025 -0.38521168 -0.2287663
000310 a5 c4 4d be f2 bf ca be d0 e2 a8 bd 05 d7 34 3e
       -0.20094545 -0.39599568 -0.08246386 0.17660148
000320 a7 b8 98 bb 21 10 71 be 83 48 99 be 29 81 7c be
       -0.004660684 -0.23541309 -0.29938135 -0.24658646
000330 a0 2c e6 be d4 7a d3 bd 40 cc 9e be ab 4a c5 be
       -0.4495592 -0.10326162 -0.31015205 -0.3853353
000340 91 4e a0 be 44 d1 1a bf 81 6f 22 be 40 26 a3 bd
       -0.3130994 -0.60475564 -0.15862848 -0.0796628
000350 d0 9d d1 bd 8b c0 27 bd 84 24 10 bf 0e eb 63 3e
       -0.102351785 -0.040955108 -0.5630572 0.22257635
000360 02 e3 8a be 0d 69 cb 3d 69 74 63 3e 69 e9 12 be
       -0.27126318 0.09932146 0.22212376 -0.14346851
000370 d1 66 aa be fb 44 ff bc 01 09 ee be bd b1 a8 bd
       -0.33281568 -0.031160822 -0.46491244 -0.08237026
000380 7f 77 0b bf 73 0b 96 be c7 dc 52 be 67 25 02 bf
       -0.5447921 -0.2930561 -0.20592032 -0.5083832
000390 22 9d 70 be 21 4c 66 be 26 d5 6d bc 6e 9b 45 be
       -0.23497441 -0.22489978 -0.014516151 -0.19297573
0003a0 e7 64 59 3c 7f f2 ae be 9c 16 ad be 98 32 b0 3d
       0.013268686 -0.34169385 -0.33806312 0.086034
0003b0 99 fd 85 bd 00 96 1c 3e 2d fe 8a be 53 bd 83 be
       -0.065425105 0.15291595 -0.27147046 -0.2573038
0003c0 ec c9 b1 be 3b 82 85 be a4 1d 31 bd dd 9b 99 3d
       -0.34724367 -0.2607592 -0.043241158 0.07500432
0003d0 47 70 35 3c 4a 4c 60 3b 9f 1d 52 be 96 ce 35 3e
       0.011074132 0.003422516 -0.20519112 0.17754588
0003e0 e4 22 91 bd df 25 d7 be d5 ca 26 be a2 6d 74 be
       -0.07086733 -0.4202108 -0.16288312 -0.23869947
0003f0 8e f2 9c bd 94 89 80 be c6 a7 d4 3d fa d7 ba be
       -0.07663451 -0.25104964 0.10383563 -0.36492902

linear2.weight f4 [3, 256]
000000 f3 29 1e 3f 2b 5a 57 bb ac 66 95 3c ac ae 0f 3d
       0.6178276 -0.003286014 0.018237434 0.03507869
000010 41 4a 10 be f3 57 51 3e cd ea 09 3d 84 1b d6 3e
       -0.14090826 0.20443706 0.03367119 0.41817868
000020 c0 36 0f 3f 41 5d 83 be 5f c8 cc 3b 0a 1d dd be
       0.55942917 -0.25657085 0.006249472 -0.43186218
000030 15 ed 06 3f bb 57 6f bc 55 84 09 bd 27 74 30 3d
       0.5270551 -0.014608319 -0.033573467 0.04307952
000040 57 d5 8e 3e 33 c3 9a 3d 14 a7 7a be 75 1a 33 be
       0.2789714 0.075567625 -0.24477798 -0.17490561
000050 27 c0 8a bb 23 12 7f ba 65 17 63 3c c6 14 9e 3d
       -0.004234332 -0.00097301806 0.013860558 0.07718806
000060 b0 40 b3 3e 9e 47 a4 bc 6d 2c ed 3d 65 e9 92 3c
       0.3501029 -0.020053681 0.11580739 0.017933557
000070 7a 8b 41 3c d2 03 18 bd 21 32 83 3c 29 42 eb 3e
       0.011813039 -0.03711302 0.016015114 0.45948914
000080 0a 1d 76 bc 43 5f 7b b9 37 03 26 3d 6f bf ec 3e
       -0.015021572 -0.00023972713 0.04053041 0.46239802
000090 2d a3 06 be 5b d9 de 3e e9 39 9f be e3 03 65 bd
       -0.13148184 0.43525204 -0.3109887 -0.05591191
0000a0 8c 56 98 3c f4 0c aa 3c 5c ac ae bc 7b 20 b9 be
       0.018595956 0.02075813 -0.021322422 -0.36157593
0000b0 f5 e5 bb bd cc 3b 9b bc 87 ba 27 3d 2e 50 59 be
       -0.0917472 -0.018949412 0.04094937 -0.21221992
0000c0 af 53 97 3a 4a c7 6c bb 75 1e e0 3d 8a 60 06 3f
       0.0011545325 -0.0036129528 0.10943309 0.52491057
0000d0 b2 6e b5 bc 67 eb 3a be 89 5b c4 bb d6 b7 9d bd
       -0.02214751 -0.18253861 -0.005992357 -0.077010795
0000e0 1c ff a3 bc a0 4b 04 3f e7 3f 19 3f fb f6 4f 3c
       -0.020019107 0.51677895 0.5986313 0.012693162
0000f0 cd 76 84 bd ff ab e5 be 6d 7d 18 3c 0c a0 5e bc
       -0.06467972 -0.44857785 0.009307248 -0.013587963
000100 f9 ce b9 bc ff c5 3b 3f eb 29 b3 bd 71 72 60 3e
       -0.0226817 0.73348993 -0.087482296 0.21918656
000110 f0 5e 0a bc 58 b7 8d 3e cd 46 fb 3e 1a 49 8d 3b
       -0.008445486 0.27678943 0.49077454 0.004311693
000120 d6 a2 1c bd 2a f2 00 3f 4f ed 48 3e 3b 7c b7 bd
       -0.03824123 0.50369513 0.19621776 -0.08959242
000130 dd b0 63 bf c5 69 e2 3e 2d 87 b9 3e db 3b 81 be
       -0.88941747 0.4422132 0.36235943 -0.2524098
000140 9a 10 87 bc 6d 90 86 3c 61 72 0a bf de 40 d4 bb
       -0.016487408 0.01642629 -0.5408078 -0.0064774593
000150 74 16 af bd 2f 2c ff 3e fd 26 e3 bd da 5d 37 be
       -0.085492045 0.49838397 -0.11091421 -0.17906895
000160 2b e7 a8 bd 0e 67 0d 3f 27 4a df bc 33 64 99 3e
       -0.08247217 0.55235374 -0.027257038 0.29959258
000170 aa b4 39 be f5 f5 74 bb 31 ab 99 3e 60 f0 80 3c
       -0.18135324 -0.0037378047 0.3001342 0.01573962
000180 4c 08 d5 3b 45 7e 61 3d f4 e7 be 3a c3 60 80 3e
       0.006501233 0.05505206 0.0014564977 0.25073823
000190 40 37 aa 3a 47 4e b7 bd c5 a2 c6 bd 71 36 92 3f
       0.0012986436 -0.08950477 -0.096990146 1.1422864
0001a0 8f 52 22 3f fb 68 79 bd 6a 54 bd 3c df 63 23 bc
       0.63407224 -0.060891133 0.02311154 -0.009972542
0001b0 7c 8f 30 3e b0 28 80 bc 41 4f 41 bd 48 58 d9 bd
       0.17242235 -0.015644401 -0.047194723 -0.106125414
0001c0 fb 04 72 38 d5 05 0f bd 14 72 e8 3c a2 93 60 be
       5.7701935e-05 -0.03491767 0.02837471 -0.21931317
0001d0 7d 94 7d be 42 7d bb 3e b4 38 b3 bd 7d 4e 60 3d
       -0.24763675 0.36619002 -0.0875105 0.054762352
0001e0 20 63 18 3c c5 9b ee be c7 27 9a 3e 5d b3 34 3c
       0.009300977 -0.46603218 0.30108473 0.011029092
0001f0 55 9e de bd 0b ae 0f bc 61 da e0 bc 0c 8b 6c bb
       -0.10870043 -0.008769522 -0.027447881 -0.003609362
000200 a9 ed 33 3f 29 d1 68 be eb 26 01 3e 16 72 5f bd
       0.70284516 -0.22736038 0.12612502 -0.05455216
000210 21 c4 20 be d1 4f 95 3b 77 ea ed 3b 12 1b 03 bd
       -0.15699817 0.004556634 0.0072606164 -0.032008238
000220 e1 6c 4e be f1 f5 8b be 44 28 31 be 1f b8 83 be
       -0.20158722 -0.27336076 -0.17300516 -0.2572641
000230 c1 bc 95 bd 52 9c d8 3e 3c e4 c5 ba eb 60 89 bc
       -0.073113926 0.42306763 -0.0015097926 -0.016769847
000240 6e ed 99 3e 83 b7 9b bb 33 f2 47 be fe 6a 1b 3e
       0.30063957 -0.004752101 -0.19525985 0.15177533
000250 fb a4 d7 3c c1 22 db 3e ae 04 02 3f ac 42 c4 bd
       0.026323786 0.42799953 0.5078839 -0.09583029
000260 a6 d4 ef bb 59 ba 0d be de a3 7c bc e6 38 39 bd
       -0.007319051 -0.13840617 -0.015419928 -0.04522028
000270 71 52 9e bd 45 10 2f 3c 5c 82 d2 3e 66 f0 98 bc
       -0.07730568 0.010685031 0.4111508 -0.018669318
000280 b6 75 4a be 53 bb a4 bc 2b f3 44 be 81 23 8c 3e
       -0.19771466 -0.020108854 -0.19233386 0.27370837
000290 a2 01 cf 3e 44 c0 ed bc cd e7 d3 ba 28 56 7d bd
       0.40430933 -0.029022343 -0.0016167104 -0.061849743
0002a0 9a ec 86 be 03 2d 66 bb 40 e8 15 bb 7b 85 d8 3d
       -0.26352388 -0.0035122044 -0.0022874027 0.105723344
0002b0 f8 0e f9 bc 75 ef f2 be 85 2a a4 bb 04 ed ce bd
       -0.030402645 -0.47448316 -0.0050099515 -0.10103801
0002c0 75 2c 83 3d 4f 21 cf 3c 2d 77 a6 3c 4e b6 a8 bb
       0.06404964 0.025284437 0.0203205 -0.0051486855
0002d0 16 b7 0d bd e0 50 92 bd 60 47 c0 bc a8 24 8d bd
       -0.034598432 -0.07144332 -0.023471534 -0.06891757
0002e0 91 72 1e bf 45 d2 96 bd 30 60 ad 3e 45 38 a6 bc
       -0.61893564 -0.073643245 0.33862448 -0.020290503
0002f0 d9 44 76 be fa 57 76 3e 10 66 da 3a 68 60 1a 3a
       -0.24049701 0.24056998 0.0016662497 0.00058889994
000300 36 ee c0 be 6b 99 05 bc e6 75 4e bd a9 25 07 3d
       -0.3768174 -0.0081542535 -0.050405405 0.0329949
000310 da 9a 9e 3e 73 01 b1 bc ab fa 37 be 2c d4 a0 3d
       0.30977517 -0.021607136 -0.17966716 0.078529686
000320 30 25 b8 3e 1e 65 01 3f 18 5f 7d bd 9c 59 c4 3b
       0.35965872 0.5054492 -0.061858267 0.0059921276
000330 49 2a 38 bc a5 c5 09 3f bc 79 cb bc 3e 82 c5 3c
       -0.01124055 0.53817207 -0.02483832 0.024109956
000340 4d ac 3d bd 20 28 85 be 51 b1 5f ba 46 ab 77 3f
       -0.046306897 -0.26007175 -0.0008533197 0.9674572
000350 10 d3 1d bf 84 24 0e bc 8d cd a6 bd 07 e5 d1 3e
       -0.6165018 -0.008675698 -0.081446745 0.40995046
000360 a8 de 8b be a7 8e e1 3e b9 aa 40 3e 24 de 7c be
       -0.2731831 0.44054148 0.18815126 -0.24694115
000370 23 d1 c7 bd ae 0e 06 3e 42 d1 91 bb 18 4d 2b be
       -0.097566865 0.13091537 -0.0044499943 -0.16728628
000380 f6 da c3 bd a2 58 15 be 00 45 49 be b7 d7 95 bd
       -0.09563248 -0.14584592 -0.19655228 -0.07316535
000390 ba f8 71 bd ed 22 dd 3a 5a bb a3 3e bd 16 b2 bd
       -0.059075095 0.0016871371 0.31978875 -0.08695743
0003a0 ec 21 91 bc 80 3f f3 bc 53 fc f4 3d e0 5f 0f 3e
       -0.01771637 -0.029693365 0.119621895 0.14001417
0003b0 fb 60 1e 3d 85 c6 40 3f 64 3e a3 bb ec 1c f7 bb
       0.038666707 0.75302917 -0.004981803 -0.0075412896
0003c0 1a 76 32 bf 54 71 99 bd d2 32 99 3b 25 45 d8 be
       -0.6971146 -0.07492319 0.0046752477 -0.42240253
0003d0 a8 bf 3c 3b 4d 70 5c bd 67 d6 6b be 6a 1e 17 3b
       0.002880076 -0.053818036 -0.23031007 0.00230589
0003e0 0e 86 45 3c db 51 9c bd 67 2b 4c 3b ee eb cf 3e
       0.012055887 -0.076328 0.00311538 0.40609688
0003f0 0b a7 e2 3e 35 3d c3 3b 17 7e 23 bf c7 83 95 bc
       0.4426807 0.005958224 -0.6386427 -0.018251313

linear2.bias f4 [3]
000000 7f 8a 19 3e e8 5e 10 be 21 d9 20 be
       0.14994238 -0.14098704 -0.15707828
